torch_mtcnn/ckptdir/ONet.pkl (torch_old, 900337 bytes, 12 tensors)

conv1.weight f4 [32, 3, 3, 3]
0	0x3df4140a	0.11917885
1	0x3e36543b	0.17805569
2	0x3e169a6c	0.14707345
3	0x3d48c9bd	0.049020518
4	0xbd8ed3fb	-0.06974026
5	0xbd9ccd95	-0.07656399
6	0x3caf6242	0.021409158
7	0xbd8f3dcb	-0.06994208
8	0xbdb77cad	-0.08959327
9	0xbe1e8e37	-0.15483938
10	0xbe0f3a3f	-0.13987063
11	0x3d36e07e	0.044647686
12	0xbd4e6608	-0.050390273
13	0xbda42830	-0.08015478
14	0xbe23472b	-0.15945117
15	0xbe873556	-0.2640788
16	0xbe439fb7	-0.19103895
17	0xbe25f8b4	-0.16208154
18	0x3e24cd3d	0.16093917
19	0x3e20486f	0.15652631
20	0x3dcab23d	0.098972775
21	0xbd2a48c6	-0.04157331
22	0x3d8f5aef	0.06999766
23	0x3dc7141e	0.09720634
24	0xbd8c30dd	-0.068452574
25	0xbde668a9	-0.11250431
26	0xbd738f4e	-0.059462838
27	0x3da041d5	0.078250565
28	0x3dbfd430	0.093666434
29	0xbddcc66b	-0.10780033
30	0x3d914b0e	0.07094394
31	0x3e21beed	0.15795489
32	0x3d178049	0.036987577
33	0xbd31e139	-0.04342768
34	0x3e2e37d9	0.17013492
35	0xbce3d1fe	-0.027810093
36	0x3dc7b68b	0.09751614
37	0x3c6f9f8b	0.01462544
38	0x3d40fda4	0.04711689
39	0xbd14ce1a	-0.036329366
40	0xbc9c05a6	-0.019045662
41	0xbe1116e2	-0.14168885
42	0x3ce82d4d	0.028341914
43	0xbd7e8d07	-0.062146213
44	0xbd8f07a2	-0.06983878
45	0xbe1e2092	-0.15442112
46	0xbd5defad	-0.05418365
47	0xbdd5fb5d	-0.10448334
48	0xbb3206bb	-0.0027164656
49	0xbe20a083	-0.1568623
50	0xbd511a55	-0.051050503
51	0xbe2650eb	-0.16241805
52	0xbe2eb893	-0.17062597
53	0xbc03a883	-0.008035782
54	0x3e904e68	0.2818482
55	0x3e9cf7a0	0.30657673
56	0x3c6347bd	0.013872084
57	0x3d0deb97	0.034648504
58	0x3d5d8483	0.05408145
59	0xbe914ada	-0.2837742
60	0x3d5ea064	0.05435218
61	0xbe732e86	-0.23748216
62	0xbebc2afc	-0.36751544
63	0x3ebf205f	0.37329385
64	0x3e56e678	0.20986354
65	0x3d9d6c62	0.07686688
66	0x3e5e7ca9	0.21727242
67	0x3d56423a	0.052309252
68	0xbe7fbafa	-0.2497367
69	0x3d911a68	0.07085115
70	0xbcb0db6e	-0.021589007
71	0xbedc35a4	-0.43009675
72	0x3e46edfa	0.19426718
73	0x3e818e90	0.2530408
74	0xbdec02cc	-0.11523971
75	0x3d9de4e2	0.077096716
76	0x3b117c63	0.0022199384
77	0xbd89a8d6	-0.06721656
78	0x3d1be50b	0.03806023
79	0xbdd96d6a	-0.10616572
80	0xbec3e453	-0.38260135
81	0x3e497066	0.19671783
82	0x3e28ccfe	0.16484448
83	0x3d14fdc1	0.03637481
84	0xbbe2baa8	-0.006919224
85	0x3d481d5a	0.048856117
86	0x3df0bc34	0.11754647
87	0xbdedc044	-0.116089374
88	0xbdcdfa7d	-0.100575425
89	0xbe11514f	-0.14191173
90	0x3e1a0ca6	0.15043887
91	0x3dc02e34	0.093838125
92	0xbdd5c921	-0.10438753
93	0xbd5cd7b5	-0.05391665
94	0xbe085ab9	-0.13315858
95	0xbe189370	-0.14899993
96	0xbe5bbd05	-0.21458824
97	0xbe1fd42b	-0.1560828
98	0xbe93ed76	-0.28892106
99	0xbb43df69	-0.0029887802
100	0x3e059326	0.13044414
101	0x3d4dec4e	0.050274186
102	0xbdf286c9	-0.118421145
103	0x3dfe1eb9	0.12408204
104	0x3c79a701	0.015237571
105	0xbb0cb26b	-0.002146865
106	0xbe01f752	-0.12692001
107	0xbb74dd73	-0.003736344
108	0x3e957de3	0.29197606
109	0x3d86dacb	0.065847
110	0xbeb71ede	-0.35765737
111	0x3dde6f94	0.108611256
112	0x3d224109	0.039612804
113	0xbe72c795	-0.23708947
114	0x3e307006	0.17230234
115	0xbce8de11	-0.028426202
116	0xbd847ecf	-0.06469499
117	0x3e5b6934	0.2142685
118	0xbe050cf6	-0.12993225
119	0xbeb3ecfe	-0.35141748
120	0x3ea1ef09	0.31627682
121	0xbb110424	-0.0022127712
122	0xbea2d7db	-0.3180531
123	0x3e932ae3	0.28743657
124	0x3e3ecc63	0.18632655
125	0xbe08c6f8	-0.1335715
126	0x3e3b2354	0.18275195
127	0xbd62c2d1	-0.055361573
128	0xbeae3161	-0.34022048
129	0x3e9bb7f9	0.30413797
130	0xbd505065	-0.05085792
131	0xbe300a5f	-0.17191456
132	0x3e8b5e17	0.27220222
133	0x3d45ee1a	0.048322774
134	0xbe6c206a	-0.2305924
135	0x3d9f2c4e	0.07772122
136	0x3e208baa	0.15678278
137	0x3e510492	0.204119
138	0x3c6029b1	0.013681815
139	0x3db23ffd	0.08703611
140	0x3d6bd7c1	0.057578806
141	0xbd9d2250	-0.0767256
142	0xbe31fbf3	-0.17381267
143	0xbe7d8f68	-0.24761736
144	0x3e23a0b3	0.1597927
145	0x3e42de95	0.19030221
146	0x3ea14e6e	0.3150515
147	0xbce680d4	-0.028137602
148	0xbe08f37e	-0.13374135
149	0x3d665dbf	0.056241747
150	0xbe5d6b33	-0.21622925
151	0xbeb2912b	-0.3487638
152	0xbe770470	-0.24122787
153	0x3e21e128	0.15808547
154	0x3e0cfa42	0.13767341
155	0x3e8b4f4e	0.27208942
156	0xbde717c5	-0.112838306
157	0x3d40a488	0.04703191
158	0x3e173911	0.14767863
159	0xbd397e91	-0.04528672
160	0xbe819316	-0.2530753
161	0xbe828983	-0.25495538
162	0x3d56b9b3	0.05242319
163	0x3dfaac99	0.12239952
164	0xbde0d52b	-0.109781586
165	0xbb858e4d	-0.0040758015
166	0x3d389264	0.045061484
167	0x3cf33e9c	0.02969294
168	0xbd24553a	-0.04012034
169	0xbe11dadd	-0.14243646
170	0x3dc8e855	0.09809939
171	0xbe29060c	-0.16506213
172	0xbd86407c	-0.06555268
173	0xbe4bdb7b	-0.19907944
174	0x3d7c652e	0.06161993
175	0xbdffe519	-0.12494869
176	0x3cecee90	0.02892235
177	0xbdc2be7b	-0.095089875
178	0xbd3d1f22	-0.04617227
179	0xbcf64635	-0.030062774
180	0xbdb6e408	-0.08930212
181	0xbe02d681	-0.12777139
182	0xbde30474	-0.11084834
183	0x3d90a3fd	0.07062528
184	0xbd3a3c24	-0.04546751
185	0x3d9896ee	0.074506626
186	0x3ccc12e2	0.024911348
187	0x3dd15393	0.10221019
188	0x3e0458ef	0.1292455
189	0x3e22d8b7	0.15902983
190	0xbdee4c88	-0.11635691
191	0xbdd640eb	-0.10461601
192	0xbdebb202	-0.11508562
193	0xbe359ec3	-0.17736344
194	0xbe8df9f0	-0.2772975
195	0xbe1bc9e9	-0.15213741
196	0xbe6ef0b5	-0.2333401
197	0xbe6cde42	-0.2313166
198	0x3e9bfc32	0.30465847
199	0x3e1a5eb0	0.15075183
200	0x3cfa9720	0.03058964
201	0x3ade5012	0.0016961119
202	0x3e4671e7	0.19379388
203	0xbcf296f0	-0.029612988
204	0x3e3752e1	0.1790271
205	0x3e1f2c68	0.15544283
206	0xbda64d40	-0.08120203
207	0x3e132acb	0.14371793
208	0x39376d8e	0.00017493052
209	0xbe276120	-0.16345644
210	0xbdf55902	-0.119798675
211	0x3c9d8c5f	0.019231973
212	0xbdfd6031	-0.12371863
213	0xbc2d0d11	-0.010562197
214	0x3c550e85	0.01300395
215	0x3c95e90a	0.018299598
216	0x3ce85ea5	0.028365443
217	0x3d0dcf6d	0.034621645
218	0xbd8b26ab	-0.06794485
219	0xbe02a046	-0.12756452
220	0xbd9c65b5	-0.076365866
221	0x3e042409	0.12904371
222	0x3c086c71	0.008326636
223	0x3dfa78c4	0.122300655
224	0xbd98dd2b	-0.074640594
225	0x3e322880	0.17398262
226	0x3d0e9b00	0.03481579
227	0xbd8f194e	-0.06987248
228	0xbdf199aa	-0.11796887
229	0x3d68e569	0.056859408
230	0x3df65efe	0.12029837
231	0xbd661107	-0.056168582
232	0x3bd9eab9	0.0066502956
233	0xbd595609	-0.053060565
234	0x3d058fef	0.03260797
235	0xbe1e89d5	-0.15482266
236	0xbdce72fb	-0.100805245
237	0xbe067070	-0.13128829
238	0xbe279789	-0.163664
239	0xbda74036	-0.08166544
240	0x3ddf64b7	0.10907882
241	0xbd2b2635	-0.041784484
242	0x3da8e657	0.08247059
243	0xbdebbc96	-0.11510579
244	0xbd6cc386	-0.057803653
245	0xbd4ab73c	-0.049491152
246	0x3d64e784	0.055884853
247	0xbc1bed3d	-0.009517011
248	0xbdec23c4	-0.11530259
249	0x3dfc122c	0.123081535
250	0x3db52a6a	0.088459805
251	0xbd9f9bff	-0.07793426
252	0x3c8eab45	0.017415652
253	0x3dcc3896	0.099717304
254	0x3deaa88e	0.114579305
255	0xbd51553e	-0.051106684

conv1.bias f4 [32]
0	0xbc93c121	-0.018036427
1	0x3e7df217	0.24799381
2	0xbbeb6b32	-0.0071844095
3	0x3d5971ab	0.053086918
4	0x3c56ced0	0.013110831
5	0x3cf42613	0.029803311
6	0x3cf6bc4d	0.030119086
7	0x3d6d3d1f	0.057919618
8	0x3da5e26a	0.08099826
9	0x3db888df	0.09010481
10	0x3d91ae45	0.071133174
11	0x3d208add	0.03919493
12	0x3dba4697	0.09095495
13	0x3e03168a	0.12801567
14	0x3dfd3e7d	0.12365434
15	0x3c563495	0.01307406
16	0x39fa4e5f	0.00047742107
17	0x3dc4f877	0.096177034
18	0xbdf84d57	-0.121241264
19	0x3bc8e8e8	0.00613128
20	0xba3901d3	-0.0007057462
21	0xbd892b7f	-0.06697749
22	0xbba69ac9	-0.00508437
23	0xbc318f91	-0.010837452
24	0xba018914	-0.00049413857
25	0x3e84df76	0.25951737
26	0x3d3fc42b	0.04681794
27	0x3e2c3dd4	0.1682046
28	0x3c2e352e	0.010632796
29	0x3d793162	0.06083811
30	0xbd70e27e	-0.05880975
31	0x3dc1b727	0.09458762

conv2.weight f4 [64, 32, 3, 3]
0	0xbcd65ac1	-0.026166322
1	0x3d5be22b	0.053682487
2	0x3e5c6165	0.21521528
3	0xbc359b2e	-0.011084361
4	0xbdf23b46	-0.11827712
5	0x3dee93fc	0.116493195
6	0xbe54eff2	-0.20794657
7	0x3c4a00ef	0.012329324
8	0x3ddf8c31	0.10915411
9	0x3eb7e4d2	0.35916764
10	0x3d98de7a	0.07464309
11	0xbe291bda	-0.16514531
12	0x3ead49ea	0.33845454
13	0xbe170f67	-0.1475197
14	0xbe5db86c	-0.21652383
15	0x3dcc59c0	0.09978056
16	0xbe0f512c	-0.13995808
17	0xbe8a863b	-0.27055535
18	0xbe255cf9	-0.16148748
19	0xbebffab9	-0.37495974
20	0xbdb2ad29	-0.08724434
21	0x3dff25fd	0.124584176
22	0x3da49b4a	0.080374315
23	0x3ba02157	0.004886787
24	0x3d3b0c28	0.04566589
25	0x3e74888d	0.23880215
26	0x3d2717d5	0.040794212
27	0x3d0eb4bc	0.03484033
28	0xbd765daa	-0.06014792
29	0x3d226650	0.039648354
30	0x3e2d83ed	0.16944857
31	0xbe5765a6	-0.2103487
32	0xbceb1798	-0.028697774
33	0xbe3a2d66	-0.1818138
34	0x3c989207	0.018624319
35	0xbe323ed9	-0.17406787
36	0xbd76143a	-0.060077883
37	0xbe1d4ebb	-0.15362065
38	0x3cd5f7de	0.026119169
39	0xbd57439b	-0.052554708
40	0xbd4800aa	-0.04882876
41	0x3e8f2bb5	0.27963033
42	0xbe6341b8	-0.22193038
43	0x3e3b34ef	0.18281911
44	0x3ea61d0c	0.32444036
45	0xbe577630	-0.21041179
46	0xbe8e2e4d	-0.277697
47	0xbe133369	-0.1437508
48	0xbde9965c	-0.11405632
49	0xbe416ecc	-0.18889922
50	0xbd1e91c4	-0.03871323
51	0xbe8d5fab	-0.2761205
52	0xbb8329b7	-0.0040027755
53	0xbd981483	-0.07425787
54	0x3c3a1039	0.011356407
55	0x3dbd5c07	0.092460684
56	0xbda94b43	-0.08266308
57	0x3dfe85a5	0.124278344
58	0x3e1dd1a0	0.15411997
59	0xbde52c74	-0.111901194
60	0x3d17ad9e	0.03703081
61	0xbc7c46b1	-0.0153977135
62	0xbe3b137b	-0.1826915
63	0x3e056eec	0.13030595
64	0x3e0c8c41	0.13725378
65	0x3dd63c8f	0.104607694
66	0x3e46299e	0.19351813
67	0x3cfbb6c4	0.030726798
68	0x3e37cd1f	0.17949341
69	0xbb5161ac	-0.0031949086
70	0x3c69c291	0.01426758
71	0x3e5cc7d7	0.21560608
72	0x3d5b701d	0.053573716
73	0xbd5deafe	-0.054179184
74	0xbe3b4acb	-0.1829025
75	0x3dfcf7b0	0.1235193
76	0x3d752008	0.059845
77	0xbd41eae5	-0.047343154
78	0x3e661dbc	0.2247228
79	0xbc92c236	-0.017914873
80	0xbdb963fc	-0.09052274
81	0xbbe19e46	-0.0068853227
82	0x3bd01ecd	0.006351328
83	0xbe0cd59c	-0.1375336
84	0x3d8b26f1	0.06794537
85	0x3df0ae84	0.11752036
86	0xbd5c4ef1	-0.053786222
87	0x3d1361ee	0.035982065
88	0x3adecd6e	0.0016998479
89	0xbe672474	-0.225725
90	0x3e85f6bf	0.26164815
91	0x3e0d96dc	0.1382708
92	0xbd9908a2	-0.0747235
93	0x3e0ae2a5	0.1356302
94	0x3b905160	0.004404232
95	0xbe154c67	-0.14579926
96	0x3d91c7b9	0.07118172
97	0xbdd8f88d	-0.10594282
98	0xbe290a62	-0.16507867
99	0xbe4f8c49	-0.20268358
100	0xbec04741	-0.37554362
101	0xbe6dce53	-0.23223238
102	0xbc75f8ae	-0.015012903
103	0xbeb71b21	-0.35762885
104	0xbde7625a	-0.11298056
105	0xbe633858	-0.22189462
106	0xbe3b00dd	-0.18262048
107	0xbe3a1c88	-0.18174946
108	0x3e50c454	0.20387393
109	0x3daa484b	0.0831457
110	0xbd82bad2	-0.063832894
111	0x3e3efe51	0.18651702
112	0x3cd58a80	0.026067019
113	0x3dba7440	0.09104204
114	0x3e2f5f25	0.17126139
115	0xbce59f44	-0.028030045
116	0xbbc3fc9a	-0.00598104
117	0x3e50bb4b	0.20383947
118	0x3dc0f07d	0.094208695
119	0x3cc15db0	0.023604244
120	0x3e4fa6b4	0.20278436
121	0xbceefdd6	-0.029173773
122	0x3d3f382f	0.04668444
123	0xbe41b32f	-0.1891601
124	0xbd72c4ac	-0.059269592
125	0xbd647248	-0.05577305
126	0x3e49d39c	0.19709629
127	0xbdc5b7a6	-0.09654169
128	0xbe8e737f	-0.27822492
129	0x3e39ebae	0.18156311
130	0xbd4d84d9	-0.05017552
131	0xbe7a7d4b	-0.24461858
132	0x3e3d62f9	0.18494786
133	0x3c9d8e8b	0.019233009
134	0xbe1f60e4	-0.15564305
135	0x3ee70ddf	0.4512777
136	0x3e33b5c9	0.17549814
137	0xbdac5be4	-0.08415964
138	0x3e61bca4	0.22044617
139	0x3da3665d	0.079785086
140	0xbd04d7cd	-0.032432366
141	0x3e1e5c44	0.15464884
142	0xbcd087be	-0.025455352
143	0xbd90d515	-0.07071892
144	0x3e08e233	0.13367538
145	0x3e2db832	0.16964796
146	0x3e2173ec	0.15766877
147	0xbd599cce	-0.053128056
148	0xbc3d41d7	-0.011551342
149	0x3e518b7e	0.20463368
150	0xbe2760f3	-0.16345577
151	0xba8d7948	-0.0010793591
152	0x3cd106d5	0.025515953
153	0xbcb2468e	-0.021762159
154	0x3e0d3af9	0.13792028
155	0x3e0d65ed	0.13808413
156	0x3e33e651	0.17568327
157	0x3e5ae48d	0.21376248
158	0xbd2c6d0e	-0.04209619
159	0x3e31902c	0.17340153
160	0xbd494077	-0.049133744
161	0xbeb1168b	-0.3458751
162	0x3c40208e	0.011726512
163	0x3df558c3	0.119798206
164	0x3e8eba01	0.27876285
165	0xbe04a64c	-0.12954062
166	0xbd69690d	-0.05698495
167	0x3db8de5a	0.09026785
168	0xbe4b7f12	-0.19872692
169	0xbe31cc5b	-0.17363112
170	0xbe008469	-0.1255051
171	0xbd32f69f	-0.043692227
172	0x3e2e2c99	0.170092
173	0xbe1c51cb	-0.15265577
174	0x3e41f1a5	0.18939836
175	0x3e9650e7	0.293586
176	0xbd89389f	-0.06700253
177	0x3ee93acd	0.45552674
178	0x3e33568f	0.17513488
179	0xbe8ea013	-0.27856502
180	0x3d80c77f	0.06288051
181	0x3c29bfaf	0.010360642
182	0x3d531b65	0.051539797
183	0xbd4c64ed	-0.049900938
184	0x3c2886e8	0.01028607
185	0x3e05860d	0.13039418
186	0xbd2f1c43	-0.04275156
187	0xbe2c8771	-0.16848542
188	0xbdab6d8e	-0.08370505
189	0x3bc41187	0.0059835347
190	0xbcc36dd4	-0.023856081
191	0xbe32c248	-0.17456925
192	0xbc7d5c79	-0.015463942
193	0x3d91d542	0.07120754
194	0x3e06726b	0.13129584
195	0xbd84600f	-0.06463634
196	0x3d525f9a	0.051360704
197	0x3d508496	0.050907694
198	0xbe1ad533	-0.15120392
199	0xbd7e97d2	-0.062156506
200	0x3d2fc214	0.042909697
201	0xbe466b80	-0.19376945
202	0xbed41415	-0.4142157
203	0x3d97378c	0.073836416
204	0xbebcb308	-0.3685534
205	0xbec414be	-0.38297075
206	0xbcec88b5	-0.02887378
207	0x3cba453e	0.022738095
208	0x3dd418d0	0.10356295
209	0x3ea88128	0.32911038
210	0x3b867572	0.004103356
211	0xbd909ad4	-0.07060781
212	0x3db8972f	0.09013211
213	0xbe13ed21	-0.14445926
214	0xbe1d689b	-0.15371935
215	0xbd912d3e	-0.070887074
216	0xb9cdf384	-0.0003928208
217	0xbcea1db7	-0.028578622
218	0xbda12d61	-0.078699835
219	0x3dc1c880	0.094620705
220	0x3e1bb05f	0.15203999
221	0x3d735b76	0.059413396
222	0x3e1c0bb5	0.15238841
223	0x3dba27b2	0.090896025
224	0xbd824b12	-0.06361975
225	0x3e5e540e	0.21711752
226	0x3dda025c	0.10644981
227	0xbca41b1a	-0.020032454
228	0x3e0434b2	0.12910727
229	0xbdd5318d	-0.10409842
230	0xbe4dc421	-0.20094348
231	0x3d085ab0	0.03328961
232	0xbea43e4e	-0.32078785
233	0xbe960569	-0.29301003
234	0x3db6251e	0.08893798
235	0xbdd48b74	-0.10378161
236	0xbe46e987	-0.19425021
237	0x3e3278b5	0.17428859
238	0xbd9452c3	-0.07242348
239	0xbd98be44	-0.07458165
240	0x3d938837	0.07203715
241	0xbdeb31a5	-0.11484078
242	0xbd38091d	-0.044930566
243	0x3e8a1b85	0.2697412
244	0x3e83bcc6	0.2572996
245	0x3d85ae93	0.06527438
246	0xbd09e6a3	-0.033667218
247	0xbdb60597	-0.08887785
248	0xbdda7866	-0.106674954
249	0xbe32ac51	-0.17448546
250	0xbe6a4a0c	-0.22879809
251	0xbe335e38	-0.1751641
252	0xbb06d01b	-0.0020570818
253	0xbcee5338	-0.029092416
254	0xbb98f20e	-0.004667527
255	0xbcb764c9	-0.022386925

conv2.bias f4 [64]
0	0xbe590aa1	-0.21195461
1	0x3dbce6a8	0.09223682
2	0x3b932f3e	0.0044917157
3	0x3bffa5cb	0.0078017465
4	0xbe00a831	-0.1256416
5	0xbdd2b2ae	-0.10287987
6	0xbd9e1378	-0.07718557
7	0xbd986bf1	-0.07442463
8	0x3e034d7e	0.1282253
9	0x3db95181	0.09048749
10	0xbd57293f	-0.05252957
11	0xbe3d4162	-0.18481973
12	0x3d6bcc77	0.05756804
13	0x3dbcdc52	0.0922171
14	0x3e1619f6	0.14658341
15	0x3e56b2dd	0.20966668
16	0x3d86259d	0.06550143
17	0x3ddc558e	0.10758506
18	0x3c02b59c	0.007977869
19	0xbe6ebea9	-0.23314919
20	0xbe71ab59	-0.2360052
21	0x3d9b2c8f	0.07576858
22	0xbd1488cf	-0.036263283
23	0x3e2cc90a	0.16873565
24	0x3df39fc7	0.118957095
25	0x3dc6d39c	0.0970833
26	0x3e06a623	0.13149314
27	0x3e539ad1	0.20664527
28	0xbca9d04f	-0.020729212
29	0xbe072d32	-0.13200834
30	0x3d562d92	0.052289553
31	0x3e42ebd7	0.19035278
32	0x3d09492b	0.033517044
33	0x3ca6719f	0.02031785
34	0x3da1f903	0.07908823
35	0x3eb92db0	0.3616767
36	0x3e19ce3b	0.15020077
37	0x3d2a6246	0.041597627
38	0x3e38c1f6	0.1804274
39	0xbd3fd823	-0.046836983
40	0x3de691ab	0.11258253
41	0x3b82565e	0.003977581
42	0x3e45daeb	0.19321792
43	0x3da6ceb0	0.08144891
44	0x3da33d6a	0.07970698
45	0xbc8e3c50	-0.017362744
46	0xbe0baced	-0.13640185
47	0xbd23e70e	-0.040015273
48	0x3daf238f	0.08551704
49	0xbb37694f	-0.0027986353
50	0x3e6b5b11	0.22983958
51	0x3d245ed6	0.040129505
52	0xbd80f27a	-0.06296249
53	0x3ec34f31	0.38146356
54	0x3e6d83d0	0.23194814
55	0xbd2571e5	-0.04039182
56	0xbe0855ea	-0.13314024
57	0x3c8fde4c	0.017562054
58	0xbdfbf2f1	-0.12302197
59	0x3e30296b	0.172033
60	0x3e9ea077	0.309818
61	0x3e0af016	0.13568148
62	0x3e660e39	0.22466363
63	0xbdffbc51	-0.124870904

conv3.weight f4 [64, 64, 3, 3]
0	0xbe4b1b2e	-0.19834587
1	0xbd90e2e2	-0.070745245
2	0xbddb29b0	-0.10701311
3	0x3e1788c2	0.14798263
4	0x3dc189d4	0.09450117
5	0xbdf6e250	-0.120548844
6	0x3dab0697	0.08350866
7	0x3e23e496	0.16005167
8	0xbe9c40f1	-0.30518296
9	0xbe526860	-0.20547628
10	0xbd4496a6	-0.047995232
11	0x3dc7d886	0.097580954
12	0x3e1293ce	0.14314196
13	0xbdf3fed0	-0.11913836
14	0xbe19b355	-0.15009816
15	0x3e0325e2	0.1280742
16	0xbe4df581	-0.20113184
17	0xbe9da060	-0.3078642
18	0x3dccd851	0.100021966
19	0x3c75bad5	0.0149981575
20	0xbb327614	-0.0027231025
21	0x3d988b7f	0.07448482
22	0xbdcfb378	-0.10141653
23	0xbdf03e9d	-0.117306925
24	0xbe015cb7	-0.12633024
25	0x3cc89a29	0.024487572
26	0x3e226d70	0.1586206
27	0x3ea15a74	0.31514323
28	0x3ab16e43	0.0013536889
29	0xbe3fbd67	-0.18724595
30	0x3e8514c2	0.259924
31	0x3d0cceb1	0.034376804
32	0xbd240cbd	-0.04005121
33	0x3ddcaf59	0.107756324
34	0xbdeb46e4	-0.11488131
35	0xbe2ad937	-0.16684423
36	0x3e3aed41	0.18254568
37	0xbe564372	-0.20924166
38	0xbdbad4b5	-0.09122602
39	0xbdf9782d	-0.12181125
40	0xbde41255	-0.11136309
41	0xbe788051	-0.24267699
42	0xbe010064	-0.12597805
43	0xbe38b521	-0.18037845
44	0xbd2f59e7	-0.042810347
45	0xbe1bf99d	-0.15231939
46	0xbe08a934	-0.13345796
47	0xbdd289cc	-0.10280189
48	0x3d243cb6	0.04009696
49	0x3d14d92c	0.036339924
50	0xbdbd1c31	-0.09233893
51	0xbc9ca4e1	-0.01912159
52	0xb9d9ec5e	-0.00041565573
53	0xbd8ab0cf	-0.06772005
54	0xbcb208d5	-0.021732727
55	0xbe4ffe76	-0.20311913
56	0xbe292f01	-0.16521837
57	0xbd3b191b	-0.04567824
58	0x3c8dabd5	0.01729385
59	0x3e42e3ae	0.19032165
60	0xbebc2e7e	-0.3675422
61	0xbe2d95df	-0.16951703
62	0x3e120e5f	0.14263295
63	0x3e110bff	0.14164732
64	0xbe1db2cf	-0.15400241
65	0xbdb6e7be	-0.0893092
66	0xbe2f1a95	-0.17099984
67	0xbde54a46	-0.11195807
68	0x3d6fe3ab	0.05856673
69	0xbe29d4fb	-0.16585152
70	0xbe06d5c5	-0.13167484
71	0xbcaec7fc	-0.021335594
72	0x3d0c36fa	0.034232117
73	0xbdda3e3f	-0.10656404
74	0xbd37dc5b	-0.04488788
75	0x3e5c4c76	0.21513543
76	0x3c5577c5	0.013029044
77	0xbd1b4c31	-0.03791446
78	0xbc9a0734	-0.018802263
79	0xbe11117f	-0.1416683
80	0x3de111c6	0.10989718
81	0x3e096d03	0.13420491
82	0x3dbf9349	0.09354264
83	0x3d33aaa2	0.0438639
84	0x3dedc1f1	0.11609257
85	0xbdaf4648	-0.08558327
86	0xbe8d7947	-0.2763159
87	0x3d26ce81	0.04072428
88	0xbc091c81	-0.008368612
89	0xbee31209	-0.44349697
90	0x3de39748	0.11112839
91	0xbce5ef90	-0.028068334
92	0xbe913870	-0.2836337
93	0x3e9d7797	0.30755302
94	0x3caf9c12	0.021436725
95	0xbd17500f	-0.036941584
96	0xbdf67a82	-0.12035085
97	0xbd4b838c	-0.049686
98	0x3e98c7a8	0.29839826
99	0x3dedd377	0.11612599
100	0xbe93e068	-0.28882146
101	0x3d38edd2	0.045148678
102	0x3dc890dc	0.09793255
103	0xbed514d3	-0.4161745
104	0x3d7fc7bb	0.062446337
105	0xbd41a7d5	-0.047279198
106	0xbe5e5529	-0.21712174
107	0x3e2f6f43	0.17132287
108	0xbe600f91	-0.21880938
109	0xbf05b9ac	-0.5223644
110	0xbdde3adc	-0.1085107
111	0xbdc47752	-0.09593071
112	0x3d2b42b2	0.041811652
113	0x3e8f792b	0.2802213
114	0xbe63fe14	-0.22264892
115	0x3e82cc36	0.25546426
116	0x3e76b2b7	0.24091612
117	0xbe8d1d92	-0.27561623
118	0x3b5d4a30	0.0033766143
119	0x3e8da7a1	0.27666953
120	0x3ddd37e9	0.1080168
121	0x3e034836	0.12820515
122	0xbb67d699	-0.0035375713
123	0x3e17ae5d	0.14812608
124	0x3dd1a536	0.102365896
125	0xbe4caeda	-0.19988576
126	0x3dfa157b	0.12211128
127	0x3e2d64df	0.1693301
128	0x3e0a644e	0.13514826
129	0x3c89037a	0.01672529
130	0xbe3230e4	-0.17401463
131	0x3e55fa8a	0.20896354
132	0xbd3450d8	-0.04402241
133	0xbcef2c75	-0.029196003
134	0x3e7e2f87	0.24822818
135	0x3c473cf4	0.012160528
136	0xba590f3b	-0.00082801626
137	0x3cb8a446	0.02253927
138	0x3d5929af	0.05301827
139	0x3d6b7f93	0.05749471
140	0x3d5b1249	0.053484235
141	0x3e9fd5f9	0.31217936
142	0x3eb1e3b8	0.34744048
143	0xbdb126c2	-0.086499706
144	0x3e187792	0.14889362
145	0xbcee3093	-0.029075896
146	0x3e539b92	0.20664814
147	0xbd216176	-0.039399587
148	0xbe13065a	-0.14357892
149	0xbdab5273	-0.08365335
150	0x3e29d4fd	0.16585155
151	0xbe882a7d	-0.26594916
152	0xbde8ecb4	-0.113732725
153	0x3a326792	0.00068055943
154	0x3ca9496f	0.020664899
155	0x3e29d3cf	0.16584705
156	0x3e44c77d	0.19216724
157	0x3bb20883	0.0054331436
158	0xbe06ee21	-0.13176776
159	0xbd69eb09	-0.057108913
160	0xbe57bf06	-0.21068963
161	0xbf18d8e6	-0.5970596
162	0xbdf2f579	-0.118632264
163	0x3d6de862	0.058082946
164	0x3e956307	0.29177114
165	0xbd206c00	-0.039165497
166	0xbe48d8bf	-0.19613932
167	0xbd1b794c	-0.037957475
168	0x3e971c51	0.2951379
169	0xbcb1fb4b	-0.021726271
170	0xbe272a38	-0.16324699
171	0x3e33481a	0.17507973
172	0x3e67dcc7	0.22642814
173	0x3da2e109	0.07953078
174	0xbdc57a50	-0.0964247
175	0xbe22fabf	-0.15915965
176	0xbdd9fc33	-0.10643806
177	0xbea69362	-0.3253432
178	0xbe7d989c	-0.24765247
179	0xbe0d1e93	-0.13781194
180	0x3dd27ce7	0.102777295
181	0xbe20ca77	-0.15702234
182	0xbe81e6ca	-0.2537139
183	0x3e1dbe88	0.15404713
184	0xbd359a88	-0.044336826
185	0xbd77e04d	-0.060516644
186	0xbdbb3d41	-0.09142543
187	0xbd6df866	-0.05809822
188	0xbe2dec41	-0.16984655
189	0xbdd113e1	-0.1020887
190	0xbcce0f71	-0.025153847
191	0x3df04658	0.11732167
192	0xbeb8c06f	-0.36084315
193	0xbe53488c	-0.20633143
194	0x3d89310e	0.066988096
195	0xbe1ecef3	-0.15508632
196	0x3eb0e097	0.34546348
197	0x3e4715f6	0.19441971
198	0xbd6f4ea9	-0.058424626
199	0xbd7c1258	-0.06154093
200	0xbcd89bdc	-0.026441507
201	0xbca6bb7b	-0.02035307
202	0xbe0a3004	-0.13494879
203	0xbe1ba1b2	-0.151984
204	0xbe93e8ef	-0.28888652
205	0x3e46c0ce	0.19409487
206	0x3dd632f4	0.10458937
207	0x3d93ed43	0.072229885
208	0x3cb1abd3	0.021688377
209	0x3d80ada8	0.06283122
210	0x3e004bd8	0.12528932
211	0x3bf6c8cd	0.0075312615
212	0xbcc03861	-0.023464384
213	0x3ed5b52e	0.41739792
214	0x3db43906	0.08799939
215	0x3d6cc31e	0.057803266
216	0xbc879384	-0.016549833
217	0x3e4bc06c	0.19897622
218	0x3e5e1d63	0.21690898
219	0xbd0cbc22	-0.034359105
220	0x3b08e786	0.0020889952
221	0x3d9be379	0.07611746
222	0xbde6b899	-0.11265678
223	0xbea72b72	-0.32650334
224	0xbe954634	-0.29155123
225	0xbd0ed8bc	-0.034874663
226	0xbe8db3f3	-0.27676353
227	0xbc930206	-0.0179453
228	0xbeac16ff	-0.33611295
229	0xbd96be09	-0.07360465
230	0x3e8d3386	0.27578372
231	0xbe40b828	-0.1882025
232	0x3d8c032c	0.068365425
233	0x3ea2e8d1	0.3181825
234	0x3e82e344	0.25564015
235	0x3d7b133d	0.061297644
236	0x3c15efa5	0.009151374
237	0x3e86269d	0.26201335
238	0xbe7338ab	-0.23752086
239	0x3b48c8a6	0.0030637174
240	0xbde55f15	-0.11199776
241	0x3db176a0	0.08665204
242	0x3dd738ac	0.10508856
243	0xbde569b7	-0.11201804
244	0x3e002f56	0.12518057
245	0x3cf120f2	0.029434655
246	0xbe0a0daf	-0.13481782
247	0xbe266f48	-0.16253388
248	0xbce904fd	-0.028444761
249	0xbe294ca6	-0.16533145
250	0x3d131414	0.03590782
251	0xbd6d887d	-0.057991493
252	0xbe81bec3	-0.25340852
253	0xbe55b4ea	-0.20869794
254	0xbe1788a3	-0.14798217
255	0x3e207c95	0.15672524

conv3.bias f4 [64]
0	0x3dcdba53	0.10045304
1	0x3e9f1074	0.3106724
2	0x3e387f6a	0.18017355
3	0xbe056418	-0.13026464
4	0x3d176b1e	0.03696739
5	0x3cde3169	0.02712317
6	0xbd20bd27	-0.03924289
7	0x3e6d0364	0.23145825
8	0xbe16ca71	-0.14725663
9	0xbd8d7f13	-0.06909003
10	0x3d985ce0	0.074395895
11	0xbe7c9126	-0.24664745
12	0x3c61b52c	0.013776105
13	0x3cf3c0c0	0.029754996
14	0x3bdc0970	0.006714992
15	0xbe05b117	-0.13055836
16	0xbca849b4	-0.020542957
17	0xbd833424	-0.064064294
18	0x3dbdd7fc	0.092697114
19	0x3de38e9a	0.111111835
20	0xbd28460e	-0.041082434
21	0x3e22f6b4	0.15914422
22	0xbe092263	-0.13392024
23	0x3b4fd95c	0.003171525
24	0x3d4d592e	0.050133877
25	0x3db2dc14	0.08733383
26	0xbde80222	-0.11328532
27	0x3d85f757	0.06541317
28	0x3de855d1	0.11344493
29	0x3e1121ab	0.14173
30	0xbda9f749	-0.08299119
31	0xbe8e7a5c	-0.27827728
32	0xbc5c4c1b	-0.013445879
33	0x3c960729	0.018313961
34	0xbde8eab6	-0.113728926
35	0x3e077060	0.13226461
36	0x3c5f3b09	0.013624915
37	0x3c683e89	0.014175066
38	0xbdb74529	-0.08948738
39	0x3dbd59d8	0.09245652
40	0x3d373822	0.044731267
41	0xbd0e381e	-0.034721486
42	0x3e2fc42d	0.17164679
43	0x3db37a30	0.0876354
44	0xbdd99d6a	-0.106257275
45	0x3d966872	0.0734414
46	0x3de70ee0	0.11282134
47	0x3e1b6c64	0.15178066
48	0xbb02ce76	-0.0019959486
49	0x3e0ac5fa	0.13552085
50	0x3dd6b887	0.104844145
51	0x3d4c132b	0.049822967
52	0xbe31ddef	-0.17369817
53	0xbe097a97	-0.1342567
54	0x3d5c2c3d	0.053753126
55	0x3dacd5d7	0.08439224
56	0x3e1de1ba	0.15418139
57	0x3cd2df45	0.025741229
58	0x3a04ec84	0.0005070644
59	0x3df1a73b	0.11799475
60	0xbdfe8633	-0.1242794
61	0x3d2e5c69	0.042568598
62	0x3e82ce6f	0.2554812
63	0x3db31732	0.087446585

conv4.weight f4 [128, 64, 2, 2]
0	0x3e502600	0.20326996
1	0x3d32a0eb	0.043610495
2	0x3e48c164	0.19605023
3	0x3f0238fc	0.508682
4	0x3d4dff3b	0.050292235
5	0x3da055bf	0.07828855
6	0xbda621d1	-0.08111919
7	0x3e0e4a26	0.13895473
8	0xbcf0c6b5	-0.029391626
9	0x3e8118fb	0.2521437
10	0xbe1507ca	-0.14553753
11	0xbde6a632	-0.11262168
12	0x3db073d9	0.08615846
13	0xbe8badc8	-0.27281022
14	0xbed55dd4	-0.41673148
15	0xbeaab631	-0.33342126
16	0x3a6ca5b4	0.0009027377
17	0xbd3b30e1	-0.04570091
18	0x3e2d0097	0.16894756
19	0x3da0242d	0.078194
20	0xbd25e3d8	-0.04050049
21	0x3df7048e	0.120614156
22	0x3e1dfe82	0.15429118
23	0xbe35e045	-0.17761333
24	0xbd91854a	-0.07105501
25	0xbe366d21	-0.17815067
26	0x3d01160a	0.03151516
27	0xbe8951d7	-0.2682025
28	0xbdf0469f	-0.1173222
29	0xbe06ccb0	-0.1316402
30	0xbaefd8a6	-0.0018298819
31	0xbe81e4af	-0.25369784
32	0x3dcfa606	0.10139088
33	0x3db19c9a	0.086724475
34	0xbe183de6	-0.14867362
35	0xbe73c4da	-0.23805562
36	0x3e3b0194	0.18262321
37	0x3e24b4a9	0.16084541
38	0xbe158636	-0.14601979
39	0xbd0280a4	-0.031860963
40	0x3d4da8fe	0.05020999
41	0xbe0c38ec	-0.13693589
42	0xbc0a7076	-0.008449664
43	0xbdadf99c	-0.08494875
44	0xbbd13bb8	-0.006385293
45	0x3dae27b6	0.08503668
46	0xbe121f5f	-0.1426978
47	0x3d838c60	0.06423259
48	0x3d6c9b72	0.05776543
49	0xbe73f665	-0.23824461
50	0xbdb17ad7	-0.08666008
51	0xbe3bc876	-0.18338189
52	0x3cb3247d	0.021867985
53	0x3e29bd44	0.16576105
54	0xbd80fb44	-0.06297925
55	0xbdde8cfc	-0.108667344
56	0x3d29abd3	0.04142363
57	0xbe3ef30e	-0.18647406
58	0x3d412e1e	0.04716312
59	0x3e27b7b0	0.16378665
60	0xbe3608a5	-0.17776735
61	0x3e368eae	0.17827865
62	0xbe8c2ab9	-0.27376345
63	0x3e387aab	0.18015544
64	0xbe894111	-0.26807454
65	0xbec9a492	-0.3938337
66	0xbeb8ba3f	-0.36079594
67	0x3d8909af	0.066913
68	0x3cfc4a0e	0.03079703
69	0xbdb7b132	-0.08969344
70	0x3e8bf626	0.27336234
71	0xbd1d9bb1	-0.038478557
72	0x3e1c1e6d	0.15245982
73	0xbdfd3376	-0.12363331
74	0x3c16aed8	0.009196959
75	0xbe94dfb9	-0.29076937
76	0x3af195e6	0.0018431514
77	0xbd5e8a2b	-0.054330986
78	0x3e3c32a5	0.18378694
79	0xbe4138f4	-0.18869382
80	0xbcd1c1ff	-0.0256052
81	0xbcf49f51	-0.029861124
82	0xbdf98b2b	-0.12184747
83	0x3d4a1ae2	0.049342044
84	0x3d05a9ca	0.032632627
85	0x3dae8efe	0.08523367
86	0xbe248362	-0.16065744
87	0x3d9cdb0c	0.076589674
88	0x3dc3b851	0.0955664
89	0x3e194d88	0.14970982
90	0xbe3edde2	-0.18639329
91	0xbeda6b1e	-0.4265985
92	0xbdeb9496	-0.1150295
93	0xbde7f140	-0.11325312
94	0x3dd3a211	0.10333646
95	0xbe799089	-0.24371542
96	0x3e85e616	0.26152104
97	0xbe5fde6a	-0.21862188
98	0xbd258788	-0.040412456
99	0xbdf282c3	-0.11841347
100	0x3d48c8b8	0.049019545
101	0xbe5d70e7	-0.216251
102	0xbe88d26b	-0.26723036
103	0xbe994aab	-0.2993978
104	0x3c3e3808	0.011610039
105	0x3e10c212	0.14136532
106	0xbe6d5bd0	-0.23179555
107	0xbdf396d6	-0.11894004
108	0x3e560121	0.20898868
109	0xbd294e31	-0.041334335
110	0xbe98632f	-0.2976317
111	0x3ea7159b	0.3263367
112	0xbdb52a03	-0.08845904
113	0xbc831b83	-0.01600433
114	0x3e781624	0.24227196
115	0x3e9b4fd0	0.3033433
116	0xbd9081d6	-0.07056014
117	0x3e08cf27	0.13360272
118	0x3e247266	0.16059265
119	0xbe4b77eb	-0.19869964
120	0x3e07b89a	0.13254014
121	0xbccededd	-0.025252754
122	0x3d0cfb81	0.03441954
123	0xbd832b9c	-0.06404802
124	0xbd8dbeff	-0.06921195
125	0x3d79d240	0.060991526
126	0x3dc29050	0.09500182
127	0x3c9a73be	0.018854018
128	0xbe6dcb2b	-0.23222034
129	0xbd626215	-0.05526932
130	0xbe67bafb	-0.22629921
131	0xb9f4bfdf	-0.00046682262
132	0x3d11604f	0.035492238
133	0x3c4c5b9c	0.012473013
134	0x3e4384de	0.19093654
135	0x3e988cbd	0.29794875
136	0xbd691cd0	-0.056912243
137	0xbe06162e	-0.13094398
138	0x3e160a8f	0.14652465
139	0xbc05d798	-0.008169077
140	0x3d5e9e0e	0.05434995
141	0xbd60acb1	-0.05485219
142	0x3eb2dbec	0.34933412
143	0xbec179b4	-0.37788165
144	0xbce29db2	-0.027663086
145	0xbd09a2f5	-0.033602674
146	0xbe760cca	-0.24028316
147	0xbdbb3352	-0.09140648
148	0xbe23cd2d	-0.15996237
149	0x3ed8b83b	0.42328057
150	0x3e9db776	0.30804032
151	0xbe278f18	-0.1636318
152	0x3e13f443	0.14448647
153	0x3d576709	0.052588496
154	0xbd807157	-0.06271618
155	0xbefb60c1	-0.49097255
156	0x3db12d13	0.08651175
157	0xbe600282	-0.21875957
158	0x3e86348c	0.26211965
159	0x3e562f91	0.20916583
160	0x3e5322c4	0.20618731
161	0x3d6a83d5	0.05725463
162	0xbee3083c	-0.4434222
163	0x3d86d88b	0.06584271
164	0xbde7a7d7	-0.1131131
165	0x3e283e3a	0.16429988
166	0xbc6625f5	-0.014047136
167	0x3e773ed0	0.24145055
168	0xbd8e092c	-0.06935343
169	0x3dfb02a5	0.12256364
170	0xbe5b3158	-0.21405542
171	0xbdabd8f4	-0.0839099
172	0x3e05c626	0.13063869
173	0x3d25e039	0.04049704
174	0xbbf46d07	-0.007459286
175	0xbe382292	-0.17981938
176	0x3da51061	0.08059765
177	0x3e454eed	0.19268389
178	0x3d6b4abd	0.057444323
179	0x3ab7ecac	0.0014032326
180	0x3d4079b9	0.046991084
181	0xbd9e7449	-0.077370234
182	0xbdd59ddb	-0.10430499
183	0xbe99c81e	-0.3003549
184	0xbda993a4	-0.08280113
185	0x3da7ba65	0.08189849
186	0xbec3d298	-0.38246608
187	0xbc9eac5a	-0.019369293
188	0x3e61486e	0.22000286
189	0xbdc0eae0	-0.09419799
190	0x3ec22964	0.37922204
191	0x3e059e70	0.1304872
192	0xbe650e61	-0.22368766
193	0x3db40ac7	0.08791118
194	0x3db4ffe0	0.08837867
195	0xbd18b371	-0.037280504
196	0xbe025ec8	-0.12731469
197	0xbddddd92	-0.10833277
198	0x3e16c7ce	0.14724657
199	0xbe1f2245	-0.15540417
200	0x3caccf67	0.02109499
201	0xbe3c25b5	-0.18373759
202	0xbea96ccb	-0.33090815
203	0xbe956b3e	-0.29183382
204	0x3d914e57	0.0709502
205	0xbe0e2271	-0.13880326
206	0x3ef9efc9	0.48815754
207	0x3e916edf	0.284049
208	0xbdd020a8	-0.10162479
209	0x3caede81	0.021346333
210	0x3ddd72e8	0.10812932
211	0xbdc7a173	-0.09747591
212	0xbdb857e6	-0.0900114
213	0x3e3c31db	0.18378393
214	0x3c03c683	0.008042934
215	0xbe02734e	-0.12739298
216	0xbdaeb4ac	-0.08530554
217	0x3c3b8d4b	0.011447261
218	0xbd5f5157	-0.05452093
219	0x3e6dc4bf	0.23219584
220	0x3e407650	0.18795133
221	0x3dfc750b	0.12327012
222	0x3eea2eb7	0.45738766
223	0xbc8e8e93	-0.017401969
224	0x3e52659b	0.20546572
225	0xbd1bdd85	-0.038053054
226	0x3e801850	0.2501855
227	0xbdf00979	-0.11720557
228	0xbe89697d	-0.26838294
229	0xbd043a8b	-0.032282393
230	0xbed63141	-0.41834453
231	0xbe0b6900	-0.13614273
232	0x3d4ed161	0.050492648
233	0x3dfcdbff	0.123466484
234	0x3dacc80a	0.08436592
235	0xbee7677c	-0.4519614
236	0x3c9321cd	0.017960453
237	0xb9f34817	-0.00046402283
238	0x3df5c06a	0.11999591
239	0xbf18128b	-0.59403294
240	0x3e681597	0.22664486
241	0x3de0113d	0.10940788
242	0x3d9d798c	0.07689199
243	0xbe2fa6a8	-0.17153418
244	0x3e094474	0.13405019
245	0x3e3cd53b	0.18440716
246	0xbe2715f5	-0.1631697
247	0x3e886b28	0.26644254
248	0x3dee7134	0.116426855
249	0x3dc876b3	0.09788265
250	0xbe8a7e2f	-0.27049395
251	0x3e079f81	0.1324444
252	0x3d83f04e	0.06442319
253	0x3dbff93c	0.093737096
254	0x3d523c8e	0.05132728
255	0xbd2acced	-0.04169934

conv4.bias f4 [128]
0	0xbb334d60	-0.0027359352
1	0xbd459678	-0.0482392
2	0x3e0cad1f	0.13737915
3	0x3d4eb289	0.050463233
4	0xbd1f3aa5	-0.038874287
5	0xbd5831b6	-0.052781783
6	0xbd8306cb	-0.0639778
7	0x3ee25e5c	0.44212615
8	0x3d5c0eb2	0.053724952
9	0x3efc0909	0.49225643
10	0xbcc39761	-0.023875894
11	0xbc09a8d0	-0.008402064
12	0x3eac0032	0.335939
13	0x3caf4642	0.021395806
14	0x3d0a87da	0.033820964
15	0xbc95a911	-0.018269094
16	0x3ddec1cc	0.108768076
17	0xbc86badf	-0.016446529
18	0x3ecfc7f4	0.4058224
19	0x3cf68930	0.030094713
20	0xbd38a224	-0.045076504
21	0xbd567388	-0.052356273
22	0x3d3d1ee8	0.046172053
23	0x3e0b257a	0.13588515
24	0x3e2881d8	0.16455781
25	0x3e9ae3ee	0.30252022
26	0x3d351bc5	0.044215936
27	0x3dd22173	0.10260286
28	0x3dcf6e89	0.10128505
29	0x3d44c6df	0.04804122
30	0x3d227b28	0.039668232
31	0x3e0bb83c	0.13644499
32	0xbdbfc19e	-0.093631014
33	0x3da9e180	0.08294964
34	0xbcf66475	-0.030077199
35	0xbdc177b3	-0.09446659
36	0x3e86a832	0.26300198
37	0x3e7d077f	0.24709891
38	0x3e071fb3	0.13195686
39	0x3d94d346	0.0726686
40	0x3e1d0f7f	0.15337943
41	0xbc4b6d28	-0.012416162
42	0xbd2f4746	-0.04279258
43	0x3dde9b79	0.10869498
44	0xbdcbba38	-0.09947628
45	0xbc4d747d	-0.01253998
46	0x3ce79a13	0.02827171
47	0xbd966555	-0.07343546
48	0x3e04ca17	0.12967716
49	0x3d9575c9	0.07297856
50	0x3deb3f63	0.114866994
51	0xbd8d0128	-0.06884986
52	0x3d3eacc5	0.046551485
53	0xbdb94dfb	-0.09048077
54	0x3dd87fc4	0.10571244
55	0x3e03eefb	0.12884133
56	0xbd1bbaf6	-0.038020097
57	0x3d5ffb53	0.05468304
58	0x3ea36ac1	0.31917384
59	0x3a122002	0.00055742275
60	0x3e20c67b	0.15700714
61	0x3dfeaee9	0.12435705
62	0x3e7082fe	0.2348747
63	0x3e3b6cda	0.18303242
64	0x3ddad33b	0.1068482
65	0x3e75ef0d	0.24016972
66	0xbe1a1c4c	-0.15049857
67	0x3dc58e13	0.09646239
68	0x3e28e57c	0.16493791
69	0x3e06d70b	0.1316797
70	0xbda15163	-0.078768514
71	0x3e17b6db	0.14815848
72	0xbcdcc51e	-0.026949462
73	0x3e217f4c	0.15771216
74	0xbca47526	-0.020075392
75	0x3e9aa050	0.30200434
76	0x3da82141	0.08209468
77	0x3dc54f12	0.09634222
78	0x3da6d171	0.081454165
79	0x3cab3203	0.02089787
80	0xbd51e1ef	-0.051240858
81	0x3dd9e38a	0.10639103
82	0x3e075794	0.13217002
83	0x3e31a4f8	0.17348087
84	0x3cfee311	0.031114133
85	0x3e7b0f49	0.2451755
86	0x3e737a00	0.23777008
87	0x3ec95d68	0.39329076
88	0xbd3460a9	-0.044037495
89	0xbccb49ba	-0.024815429
90	0x392885df	0.000160716
91	0x3e7da9ac	0.24771756
92	0xbd1671e2	-0.0367297
93	0x3eb53bee	0.35397285
94	0x3db509b0	0.08839738
95	0x3e8f5b03	0.27999124
96	0x3e95a4cd	0.29227296
97	0xbdb2e9b4	-0.087359816
98	0x3dfc09ed	0.12306581
99	0x3ddecbb9	0.10878701
100	0x3e707b98	0.23484647
101	0x3bfcace5	0.0077110403
102	0xbd979f39	-0.07403416
103	0x3de90b30	0.11379087
104	0xbcd4930d	-0.025949026
105	0x3d00d4df	0.03145301
106	0x3c854064	0.016266055
107	0x3ed4bc20	0.41549778
108	0x3e95f88f	0.29291198
109	0x3dad1341	0.08450938
110	0x3e6c2663	0.23061518
111	0xbc780512	-0.015137928
112	0xbb3459b5	-0.002751929
113	0x3c0a696e	0.008447988
114	0xbd6b8d16	-0.057507597
115	0xbdaf9340	-0.085730076
116	0x3e84ca97	0.25935814
117	0x3e67856d	0.22609492
118	0x3c033d67	0.008010245
119	0xbd1b0a24	-0.037851468
120	0x3d82fac5	0.06395487
121	0x3db9e471	0.09076775
122	0x3e90db0c	0.2829212
123	0x3ce1e639	0.027575599
124	0x3e1a06e8	0.15041697
125	0x3eaf1a11	0.34199575
126	0x3bcfaafe	0.0063375225
127	0x3dd9faa8	0.10643512

conv5.weight f4 [256, 512]
0	0xbd508d6d	-0.050916124
1	0xbd91d34f	-0.07120382
2	0xbda3fca8	-0.08007175
3	0xbd5175a4	-0.05113758
4	0x3df31757	0.11869686
5	0x3d5d6a8f	0.0540567
6	0x3cbd3024	0.023094244
7	0x3d9cb594	0.07651821
8	0xbdfb0ab5	-0.122579016
9	0xbd11a2f6	-0.035555802
10	0xbd8cf5cc	-0.068828195
11	0x3d9187e4	0.07105997
12	0xbdd2841a	-0.102791026
13	0x3c116876	0.008875003
14	0xbd3a0563	-0.045415293
15	0xbd3bb577	-0.045827355
16	0x3dc1ebc7	0.09468799
17	0xbdb56da1	-0.08858801
18	0x3e09dddd	0.1346354
19	0xbe6aa3b3	-0.22914009
20	0xbd9d6c9f	-0.076867335
21	0xbd553eb0	-0.052061737
22	0xbd5be9c7	-0.053689744
23	0xbdbb4cc2	-0.091455
24	0xbdaff544	-0.085917026
25	0xbe28e5ea	-0.16493955
26	0x3d73c766	0.059516333
27	0x3d1a7099	0.037705038
28	0x3dbfb43c	0.09360549
29	0x3bea0780	0.0071420074
30	0xbd1a0af8	-0.037608117
31	0x3df743af	0.120734565
32	0x3ccf6192	0.02531508
33	0x3db307bd	0.0874171
34	0x3cc2cfea	0.023780782
35	0x3c0eae90	0.008708611
36	0xbd037883	-0.03209735
37	0xbdcf3275	-0.10117046
38	0xbdfa13ef	-0.12210833
39	0x3b32fc6d	0.0027311102
40	0x3dda2097	0.10650747
41	0x3cb880ef	0.022522418
42	0x3dd21d91	0.102595456
43	0x3e32ef69	0.1747414
44	0xbcc4bed2	-0.024016771
45	0xbd79b3e7	-0.060962584
46	0xbe003ff1	-0.12524392
47	0xbda790b6	-0.08181898
48	0xbd13f858	-0.03612551
49	0x3c11df10	0.00890328
50	0x3c8288f9	0.015934454
51	0x3cc15f4a	0.023605008
52	0xbe1683a0	-0.14698648
53	0x3dea78e3	0.114488386
54	0x3c92373b	0.017848602
55	0xbcc83815	-0.024440804
56	0x3d2d9260	0.042375922
57	0x3dcfcb8d	0.10146246
58	0xbd1be24c	-0.03805761
59	0xbd928379	-0.07153983
60	0x3cdc62e6	0.026902627
61	0x3ced7acb	0.028989216
62	0x3c27264b	0.010202001
63	0xbc1cf81e	-0.00958064
64	0x3da1a6e6	0.078931615
65	0x3d20347e	0.03911256
66	0x3da320e3	0.07965257
67	0xbdc7ccf0	-0.097558856
68	0x3da8b7fe	0.08238219
69	0x3df42ce6	0.11922626
70	0x3ce8413e	0.028351422
71	0x3d9d1039	0.0766911
72	0xbda9a9d2	-0.08284344
73	0x3d4f9449	0.050678525
74	0xbdea268f	-0.11433136
75	0x3dbad6ef	0.091230266
76	0xbcc40559	-0.023928331
77	0x3b47bbc8	0.0030476917
78	0xbd43f79b	-0.047843557
79	0xbdaafabe	-0.083486065
80	0x3db0bdde	0.08629964
81	0xbd00c992	-0.031442232
82	0xbcfd7f3d	-0.030944461
83	0x3c0050ec	0.007831793
84	0x3cd46d14	0.025930919
85	0x3cfc45e2	0.030795041
86	0x3cc3ef82	0.023917917
87	0x3c4ab124	0.012371335
88	0x3dea82d7	0.11450737
89	0xbdc7056b	-0.0971783
90	0x3cbbc6d9	0.022921966
91	0xbd9ac9f5	-0.075580515
92	0xbdb0acee	-0.08626734
93	0xbd51b79c	-0.051200494
94	0xbdbd8536	-0.092539236
95	0xbd86aa05	-0.065753974
96	0x3d778b2f	0.06043547
97	0x3cdcb40d	0.026941324
98	0x3d568e53	0.052381825
99	0xbb21e8f4	-0.0024705501
100	0x3d811536	0.06302874
101	0x3df117a8	0.1177209
102	0xbd886187	-0.06659227
103	0xbe1a856a	-0.15089956
104	0x3de7678e	0.11299048
105	0xbd9ad8e0	-0.07560897
106	0x3d911358	0.07083768
107	0xbd8dd7c1	-0.069259174
108	0xbdadca17	-0.08485811
109	0xbdb6f7a5	-0.08933953
110	0x3e3c4ce7	0.18388711
111	0xbd6feb31	-0.058573905
112	0xbdd08129	-0.10180885
113	0xbc65af63	-0.014018866
114	0x3bf2fd47	0.007415447
115	0xbcf51ccf	-0.029920964
116	0x3c79df2d	0.015250963
117	0x3c5ce105	0.013481383
118	0x3d81f588	0.063456595
119	0x3d3bf85a	0.045891143
120	0x3d7368bc	0.059426054
121	0x3dc60c2a	0.09670289
122	0x3db197ce	0.086715326
123	0x3cf82922	0.030293051
124	0xbe0a7e46	-0.13524732
125	0xbe2bbdf9	-0.16771688
126	0x3dcaec5f	0.099083655
127	0x3dd2a914	0.10286155
128	0x3dd58a1a	0.104267314
129	0x3d26d6ba	0.040732123
130	0x3d2b2161	0.04177988
131	0x3dc7ab0a	0.0974942
132	0xbcadf59a	-0.021235276
133	0x3ce0ae1f	0.027426777
134	0xbd17bfa8	-0.037048012
135	0xbcd77611	-0.026301416
136	0x3c8eba81	0.017422916
137	0x3c5a7967	0.013334609
138	0x3d7f976c	0.062400267
139	0xbd262311	-0.040560786
140	0x3dda2768	0.106520474
141	0x3ab6f22c	0.0013957671
142	0xbcd05134	-0.025429346
143	0x3ceaf17d	0.028679604
144	0xbd13ba2f	-0.03606623
145	0xbd63be2c	-0.055601284
146	0xbdfbaa56	-0.122883484
147	0x3d75f257	0.060045566
148	0x3e3be190	0.18347764
149	0x3da822f5	0.082097925
150	0x3d798b3d	0.060923804
151	0xbdf62ddf	-0.12020468
152	0xbd924b2d	-0.07143245
153	0xbcf965a4	-0.030443974
154	0x3cfb1c36	0.0306531
155	0xbd6e4725	-0.058173317
156	0x3e5a8c72	0.21342638
157	0x3e597d26	0.21239147
158	0x3d43aef9	0.04777429
159	0x3e0fa2fd	0.14027019
160	0xbdaf418d	-0.08557425
161	0x3cda20d8	0.02662699
162	0xbd839224	-0.064243585
163	0xbd02998f	-0.031884726
164	0x3d02c973	0.0319304
165	0xbd9dbaf7	-0.07701676
166	0x3d819035	0.063263334
167	0x3d4dc806	0.050239585
168	0xbd66dd30	-0.056363285
169	0x3d5001c9	0.050782952
170	0x3d14e8f8	0.03635499
171	0x3d06b8d1	0.0328911
172	0x3bc027f6	0.0058641387
173	0xbdae1c2d	-0.08501468
174	0x3d34c339	0.04413149
175	0xbdc9866b	-0.09840091
176	0x3cabf982	0.020992998
177	0x3d77bd1b	0.06048308
178	0x3d250cc6	0.040295385
179	0x3b72da48	0.0037056375
180	0x3ce88941	0.02838576
181	0xbe3cdf9c	-0.18444675
182	0x3d13e266	0.036104582
183	0xbb05b7c8	-0.0020403732
184	0xbc2d26e3	-0.010568353
185	0x3c9d7889	0.019222515
186	0x3cc6179d	0.024181182
187	0xbc9a59d9	-0.01884167
188	0x3c84de56	0.0162193
189	0x3e1d6ce6	0.15373573
190	0x3e2198bc	0.1578092
191	0x3e34b79e	0.1764817
192	0xbcc17cb4	-0.023619033
193	0x3d1d7882	0.038445003
194	0x3cafe43b	0.021471133
195	0x3e058af1	0.13041283
196	0x3db75388	0.08951479
197	0xbe587414	-0.2113803
198	0xbcb267e7	-0.02177806
199	0xbd0bd8e4	-0.03414239
200	0xbd8cb184	-0.06869796
201	0xbe003940	-0.12521839
202	0xbc1a9dd2	-0.009437041
203	0xbdf76e03	-0.1208153
204	0x3e2462aa	0.16053262
205	0x3e0d0585	0.13771637
206	0x3c130331	0.008972929
207	0x3e13cc3c	0.14433378
208	0xbd17400d	-0.036926318
209	0x3d4d7702	0.050162323
210	0x3bb77738	0.005598929
211	0x3cb1db66	0.021711063
212	0x3dc8e2e0	0.09808898
213	0x3cad4c58	0.021154568
214	0x3dc849a0	0.09779668
215	0x3d9a33c2	0.07529403
216	0xbdbd2748	-0.09236008
217	0xbd995d85	-0.074885406
218	0xbd4be6ca	-0.049780644
219	0x3db5805c	0.08862373
220	0xbd12d83c	-0.03585075
221	0x3d279c01	0.04092026
222	0xbd97410c	-0.073854536
223	0xbb83c1cc	-0.004020905
224	0xbe2a6749	-0.16640963
225	0x3d4b4d21	0.049634103
226	0xbcef9e4d	-0.029250288
227	0xbd2aa712	-0.041663237
228	0x3d4480d3	0.04797442
229	0xbddc295b	-0.107500754
230	0xbd4fff49	-0.05078057
231	0x3d055793	0.03255422
232	0xbc83b2c7	-0.016076459
233	0xbc74a320	-0.01493147
234	0xbd8b281a	-0.06794758
235	0x3cc36e57	0.023856325
236	0x3cf4373b	0.029811492
237	0x3b71c1dd	0.0036889233
238	0x3da437a8	0.08018428
239	0x3e02300a	0.12713638
240	0xbd806242	-0.06268741
241	0xbce31393	-0.027719295
242	0xbd81c8c4	-0.06337121
243	0xbcf67632	-0.030085657
244	0x3dce4b62	0.10072972
245	0xbc1beffb	-0.009517665
246	0xbd9645f7	-0.073375635
247	0xbd8eb673	-0.06968393
248	0xbb64bf92	-0.0034904224
249	0xbd4f2a6c	-0.050577566
250	0xbddd24d0	-0.10798037
251	0xbd1a50e5	-0.037674803
252	0x3cc5a784	0.02412773
253	0x3c8d6221	0.017258706
254	0x3d5a3f03	0.05328275
255	0x3c30f076	0.010799518

conv5.bias f4 [256]
0	0xbd26e18c	-0.040742442
1	0x3d60f7ca	0.05492381
2	0x3e24f854	0.16110355
3	0x3ed3069f	0.4121599
4	0xbd95fc69	-0.07323534
5	0x3eaede47	0.3415396
6	0xbd06510a	-0.03279213
7	0x3ee80a82	0.45320517
8	0x3e857d18	0.26072
9	0x3dd9c4d0	0.10633242
10	0x3e0c067f	0.13674353
11	0xbc5e7213	-0.013577002
12	0x3e21007f	0.15722845
13	0xbd6a284c	-0.057167336
14	0x3e295cea	0.1653935
15	0x3eac8ed4	0.3370272
16	0xbd4fd522	-0.05074037
17	0x3bc9f271	0.0061629345
18	0x3f20531a	0.626268
19	0x3f0a2609	0.5396429
20	0xbc305883	-0.01076329
21	0x3ee32b36	0.44368905
22	0x3dae8a12	0.085224286
23	0x3f2f00e7	0.6836075
24	0x3da710ef	0.08157527
25	0x3df8c073	0.12146082
26	0xbc8f8e0a	-0.017523784
27	0xbd60c478	-0.054874867
28	0xbdb08b08	-0.08620268
29	0x3ee93c21	0.45553687
30	0x3e773533	0.24141388
31	0x3e1303a9	0.14356865
32	0xbd845c06	-0.064628646
33	0xbd8a26a0	-0.067456484
34	0x3e7b9ba0	0.24571085
35	0x3b69c4bc	0.0035670241
36	0xbcc16fce	-0.023612883
37	0x3d8b8a3e	0.06813477
38	0x3e428b1c	0.18998379
39	0x3dc87ac6	0.09789042
40	0xbc8239ac	-0.01589664
41	0x3f3b765b	0.7322747
42	0x3d991592	0.07474817
43	0x3d710eb5	0.058851916
44	0xbdad09fc	-0.0844917
45	0xbd304db1	-0.043042842
46	0x3caaed11	0.020864995
47	0x3dd446b5	0.10365049
48	0x3f54f4a8	0.83185816
49	0x3e17ebb5	0.14836009
50	0x3f1c2c37	0.61004966
51	0x3ef675e7	0.48136827
52	0x3ed6db43	0.41964158
53	0x3d686f49	0.056746755
54	0xbdfd2fb7	-0.123626165
55	0xbed5dd32	-0.4177032
56	0xbda8615d	-0.082216956
57	0x3b6b4a89	0.003590258
58	0x3d4239f3	0.047418546
59	0x3e25f9bb	0.16208546
60	0x3dd97d79	0.10619635
61	0xbe17fbb3	-0.1484211
62	0xbde9ed62	-0.1142223
63	0x3d8c874f	0.068617456
64	0x3f31248c	0.6919639
65	0x3e742295	0.23841317
66	0x3ed4bbed	0.41549626
67	0x3e62ca3c	0.22147459
68	0xbc04707c	-0.008083459
69	0x3e42c754	0.1902135
70	0x3f04da95	0.5189603
71	0x3e036f41	0.12835409
72	0xbd1eac63	-0.03873862
73	0x3f1a2bc2	0.6022302
74	0x3edf519c	0.4361695
75	0x3e54734f	0.20747112
76	0x3c85b491	0.016321452
77	0x3e4c8ab2	0.19974783
78	0x3ddff254	0.10934892
79	0x3f3c1619	0.7347122
80	0xbd9ce961	-0.07661701
81	0x3eaedb0c	0.34151495
82	0xbc079e2a	-0.008277455
83	0x3d905e06	0.070491835
84	0xbcdc7321	-0.026910366
85	0xbd10c200	-0.035341263
86	0xbc8624db	-0.016374996
87	0xbd065c93	-0.03280313
88	0xbd5cee14	-0.053937986
89	0xbe04696d	-0.12930842
90	0xbd84c36f	-0.064825885
91	0x3bac94e2	0.0052667717
92	0x3ecff460	0.4061613
93	0x3f258597	0.64656967
94	0xbe27b9cc	-0.1637947
95	0xbda6e04e	-0.081482515
96	0x3eb89c7c	0.36056888
97	0x3e3017f1	0.17196633
98	0x38e984c7	0.000111350375
99	0x3e7714b3	0.2412899
100	0x3dfeb02d	0.124359466
101	0xbd0d6afa	-0.03452585
102	0x3f0a545f	0.5403499
103	0x3d98fc5f	0.07470011
104	0xbe19304c	-0.1495983
105	0xbe2b6dc7	-0.16741095
106	0xbcd75fb0	-0.026290745
107	0x3eca243e	0.39480776
108	0x3f2f1425	0.68390113
109	0xbe2c1dac	-0.16808194
110	0x3eab1fcd	0.334227
111	0x3930aaa8	0.00016848242
112	0x3f2812b8	0.6565356
113	0x3e538bca	0.20658794
114	0x3f0be583	0.5464708
115	0xba284254	-0.0006418575
116	0xbc258cd0	-0.010104373
117	0xbc974f31	-0.018470379
118	0xbe1ac10c	-0.15112704
119	0x3efee77a	0.49785978
120	0x3e8ad426	0.2711498
121	0x3f4151d4	0.75515485
122	0xbe6f1c44	-0.23350626
123	0x3e6f43c7	0.23365699
124	0x3db0421a	0.08606358
125	0x3ed3f21d	0.41395655
126	0x3ee5ed4c	0.44907606
127	0x3ec745c5	0.38920417
128	0x3d8eb77d	0.06968591
129	0x3e90f869	0.28314522
130	0xbc86a5a6	-0.01643641
131	0x3da07acb	0.07835921
132	0x3e9b87e4	0.30377114
133	0x3edcf3ba	0.431547
134	0x3d563427	0.05229583
135	0x3f20b4e8	0.6277604
136	0x3d387de3	0.04504193
137	0xbd9e1cdc	-0.07720348
138	0xbcf77bd8	-0.03021042
139	0x3cf95ee0	0.030440748
140	0x3e03cc43	0.12870888
141	0x3ed46639	0.4148424
142	0x3e200d9a	0.15630189
143	0x3d68e21e	0.056856267
144	0x3e0a00eb	0.13476913
145	0x3e8c8143	0.2744237
146	0x3f4d3527	0.8015923
147	0x3e6d1850	0.23153806
148	0x3bd9736b	0.0066360733
149	0x3f0f2aaf	0.55924505
150	0xbc8a50e5	-0.016884277
151	0x3d016bf3	0.03159709
152	0x3e9f8c1a	0.31161577
153	0x3d9be1be	0.07611416
154	0x3d6b808f	0.05749565
155	0x3c972abb	0.018452993
156	0x3e418fc5	0.189025
157	0x3f220279	0.6328502
158	0xbc760aec	-0.015017252
159	0x3c0255e8	0.007955052
160	0x3fb55c02	1.4168704
161	0xbd51d980	-0.051232815
162	0xbac37b06	-0.0014913983
163	0xbd53c144	-0.051697984
164	0xbd0f8572	-0.035039373
165	0x3d82a31b	0.06378766
166	0x3f2a3880	0.6649246
167	0x3f0a3182	0.5398179
168	0x3c05b7db	0.00816151
169	0x3e013d2b	0.1262099
170	0x3eda9af8	0.42696357
171	0x3dc98b51	0.098410256
172	0xbd9b65e7	-0.07587796
173	0x3cbfebb2	0.023427818
174	0x3e87535c	0.26430786
175	0xbe7ed4b3	-0.24885826
176	0x3d8231e7	0.06357174
177	0x3f233645	0.63754684
178	0x3f095f74	0.53661275
179	0x3e7be104	0.24597555
180	0xbd1c4437	-0.038150992
181	0x3c9766e5	0.018481681
182	0x3ee4cb17	0.44686195
183	0x3f427e1b	0.7597367
184	0x3e4f9e18	0.20275152
185	0x3f01a6ea	0.50645316
186	0xbd0cf279	-0.034410927
187	0x3ed4227b	0.41432557
188	0xbdc9696c	-0.09834561
189	0x3e1961ea	0.14978758
190	0x3ef706b2	0.48247296
191	0xbdf1d3ec	-0.11807999
192	0x3e19cfbb	0.15020649
193	0x3e46ef8d	0.19427319
194	0x3f16f948	0.58974123
195	0x3f4010c7	0.750256
196	0x3e11f322	0.14252904
197	0x3eb436b7	0.35197994
198	0xbddf9514	-0.10917106
199	0x3cd143c7	0.025545014
200	0x3e462a16	0.19351992
201	0x3e87104a	0.26379615
202	0x3dbf57ef	0.09342944
203	0xbda2da54	-0.07951799
204	0xbb559149	-0.0032587817
205	0x3ec0f2d1	0.37685254
206	0x3e93bed3	0.28856525
207	0x3f42a9b2	0.76040184
208	0x3eb3582f	0.35028216
209	0x3d9af31e	0.07565902
210	0x3ef89537	0.48551342
211	0xbd042ec4	-0.03227116
212	0x3ede8550	0.43461084
213	0xbcef0192	-0.029175553
214	0xbdfcb4d6	-0.12339179
215	0x3cc1dc23	0.02366454
216	0xbcc59f33	-0.024123764
217	0xbd40117e	-0.04689168
218	0xbd338024	-0.043823376
219	0x3e8641c7	0.2622206
220	0x3ee251cc	0.4420303
221	0xbe15819b	-0.14600222
222	0x3e76c7ca	0.24099651
223	0xbd16eab9	-0.036844943
224	0x3cd000f5	0.025391081
225	0x3edc5644	0.43034565
226	0xbdcff7bd	-0.10154674
227	0x3b276ba0	0.0025546327
228	0x3f56941f	0.83819765
229	0x3e362702	0.17788318
230	0x3f10d469	0.5657411
231	0xbd903943	-0.07042172
232	0x3f27e511	0.655839
233	0x3f1bdf31	0.6088744
234	0xbdd10715	-0.10206429
235	0x3e888554	0.2666422
236	0x3d309033	0.04310627
237	0x3e5f5149	0.21808352
238	0xbe244470	-0.16041732
239	0x3f2c3a3f	0.67276376
240	0x3eb37047	0.35046598
241	0x3ed6929b	0.41908726
242	0x3de2b7f2	0.11070241
243	0x3cffffb6	0.031249862
244	0xbbfc8136	-0.007705833
245	0x3e479934	0.19492036
246	0x3dddb623	0.108257554
247	0xbcb069ff	-0.021534918
248	0x3ee2a7d4	0.44268668
249	0xbe0ebdf1	-0.13939644
250	0x3ec2d05d	0.38049594
251	0x3d4bca4f	0.049753483
252	0xbb9b6359	-0.004742068
253	0xbde5373b	-0.11192175
254	0xbe97d54f	-0.2965493
255	0x3c12141e	0.008915929
