torch_mtcnn/ckptdir/RNet.pkl (torch_old, 242763 bytes, 10 tensors)

conv1.weight f4 [28, 3, 3, 3]
000000 84 c1 ae 3e a3 c9 fa 3d 0e 27 22 3e c7 5c 4a 3e
       0.34132016 0.122454904 0.1583521 0.19761954
000010 72 69 88 bd 08 64 7c 3e 17 93 96 3e b7 9a 23 3e
       -0.06660737 0.24647534 0.29409096 0.15976988
000020 9e 40 81 3e aa 04 e8 3e 3c b5 ae 3e 23 07 c9 3e
       0.25244612 0.45316058 0.34122646 0.39263257
000030 5b a4 96 3e d7 28 87 3e 21 c1 60 3e dd 47 99 3e
       0.29422268 0.26398346 0.21948673 0.2993764
000040 fa aa 80 3e 36 ee b9 3e 71 d9 c2 be 55 5e f9 be
       0.25130445 0.36314553 -0.3805652 -0.48704782
000050 25 ee 4b be d6 b3 a0 be db 6d e1 be 29 2d e7 be
       -0.19915064 -0.31387204 -0.44029126 -0.45151642
000060 05 5d fb be 7d 4a ef be d7 6b e3 be 32 df b8 bc
       -0.49094406 -0.46736518 -0.44418213 -0.022567365
000070 ff f4 0d be 4a f1 8c 3d 59 4a 0c be 4d e9 2e be
       -0.1386299 0.0688196 -0.13700236 -0.17081185
000080 fb d6 21 be 8b 95 15 be 56 fb 4a be 1b c8 ca bb
       -0.15804665 -0.14607827 -0.1982244 -0.006188405
000090 8c 79 93 3e 67 40 46 3e 03 8d dd 3d 8f 36 64 3e
       0.2880367 0.19360505 0.108179115 0.22286437
0000a0 10 5a 19 3e 4d ac bc 3d 8e d3 3e 3d 64 fc 2b 3e
       0.14975762 0.09212551 0.046588473 0.16795498
0000b0 99 0c 5f bd 96 08 dd bd 6e e8 71 bd 5b b2 84 3d
       -0.054455373 -0.10792653 -0.059059553 0.06479331
0000c0 10 62 bb bd e0 64 be bc 3b 41 63 be 33 e7 12 be
       -0.09149563 -0.02324146 -0.22192852 -0.14346008
0000d0 04 9a 37 be bf f3 76 be 25 9f 64 3e 52 7e f9 bd
       -0.17929846 -0.2411642 0.22326334 -0.12182297
0000e0 2c ad 97 bd 33 69 55 be ea 9a b1 3d b1 83 ff 3c
       -0.07406077 -0.20840912 0.08672126 0.031190725
0000f0 30 d5 52 be b5 9b 25 3d 77 e5 3d bd 20 5b 07 3e
       -0.20589137 0.040431697 -0.046361413 0.13218355
000100 02 96 80 be a2 95 d5 bd fa 08 4a be 44 dc 3b bd
       -0.25114447 -0.10428931 -0.19729987 -0.04586436
000110 80 b9 46 bd ae 8e a2 be a7 cb 8c 3d 71 af 52 be
       -0.04851675 -0.3174948 0.06874781 -0.20574738
000120 e5 82 ed 3c b3 3a a3 be f8 73 89 3d 10 8f 86 be
       0.02899308 -0.3188072 0.067115724 -0.26281023
000130 5e 6b 13 bd 58 5d 58 3e fe 4d 3c 3d 74 bc 26 3e
       -0.035991065 0.21129358 0.045972817 0.16282827
000140 f3 10 4d 3d 9f 7d d1 be 0d d0 2c be 1a ee 6d be
       0.050064992 -0.40916154 -0.1687624 -0.2323536
000150 05 f7 18 3f 09 f7 24 3f af c6 6e 3e f5 78 6b be
       0.5975192 0.64439446 0.2331798 -0.2299536
000160 16 62 af be f6 9a ec bd 24 b2 9f be 67 a6 5c be
       -0.3425452 -0.11552994 -0.31190598 -0.21547852
000170 21 44 c0 be a1 2c 0c 3f 96 39 d4 3e 6a a9 72 3e
       -0.37551978 0.547556 0.41450185 0.23697439
000180 66 77 a7 be 69 ce a4 be b8 e3 88 3c 2e 15 70 be
       -0.3270828 -0.32188728 0.016710147 -0.2344558
000190 61 d2 5c be 44 02 c8 bd e0 30 e0 3e ae 44 70 3e
       -0.21564628 -0.09766057 0.4378729 0.23463699
0001a0 38 4e 55 3e a6 25 62 be 44 7a 97 be bb d1 14 be
       0.2083062 -0.22084674 -0.2958547 -0.14533131
0001b0 97 51 d1 bd 74 06 91 3d cc e9 ec 3c 40 0e ac 3d
       -0.1022064 0.07081309 0.028920077 0.084011555
0001c0 fb 88 fa 3c 6b 2d 80 bc 79 99 86 3d 33 9d 2c 3d
       0.030582896 -0.015646657 0.06572241 0.042142104
0001d0 dd fa 9a 3d 97 84 8d 3d 41 84 04 be b3 36 02 3e
       0.075673796 0.06910055 -0.12941076 0.12716179
0001e0 17 68 51 bd 4b 2f 0d be b4 07 35 3e 0b 24 03 3e
       -0.05112466 -0.13787572 0.1767872 0.12806718
0001f0 03 8b 19 be 54 3b 66 3d 99 a4 31 3d 49 81 b7 bd
       -0.14994435 0.056208923 0.043369863 -0.08960206
000200 a1 76 f7 3c 55 b2 3a be c9 0a ab 3d bf 32 fc bd
       0.030207934 -0.18232091 0.083516665 -0.123143665
000210 45 7b c1 bc 6b 34 41 be 59 bc 0c be b9 bb 08 be
       -0.02361835 -0.18867652 -0.13743724 -0.1335286
000220 26 3d cd bc 32 3c 70 3d 4e 2f 85 be 5c 35 23 bd
       -0.025053572 0.058651157 -0.26012653 -0.03984581
000230 0d 17 b7 bd 06 39 d5 bd 47 58 10 3e 38 ed 77 bc
       -0.089399435 -0.10411267 0.14096175 -0.015132241
000240 1b ce a8 bd 82 bf e7 bc c6 45 16 3d 95 df d0 bc
       -0.082424365 -0.02828956 0.036687635 -0.025497237
000250 b4 5d cf bc 31 94 30 bd 84 5b 1b be 72 04 8e 3d
       -0.025313236 -0.043110076 -0.15171629 0.069344416
000260 7d 93 25 3d a1 b0 ea 3d 06 39 28 be 34 8d a6 be
       0.04042386 0.114594705 -0.16428003 -0.32529604
000270 80 6e 64 3d 3d 87 31 bc af 84 5d be d5 a9 39 be
       0.055769444 -0.010835466 -0.21632646 -0.18131192
000280 64 35 13 be 8a 97 e8 be a1 f7 d6 bd 2a 98 92 bc
       -0.14375836 -0.45428115 -0.1049645 -0.017894823
000290 33 b7 e7 bd 51 38 ef bd 68 08 60 3d 3f bb c7 3d
       -0.11314239 -0.116806634 0.054695517 0.09752511
0002a0 e3 48 a6 bd 02 98 e9 3c 92 6a 42 be 10 37 9b 3e
       -0.08119371 0.028514866 -0.18985966 0.30315447
0002b0 b9 38 bd 3d 4f 91 a4 3c 16 6b 49 3e 38 b6 48 3e
       0.092393346 0.02008882 0.19669756 0.19600761
0002c0 b7 c6 3a 3e a4 d4 a6 bd 65 a8 57 3e 02 7c 14 3e
       0.18239866 -0.08146027 0.21060331 0.1450043
0002d0 8c 06 53 be c3 5f 8b be d9 46 96 bd 97 30 4a be
       -0.20607966 -0.27221498 -0.07337732 -0.19745098
0002e0 4a 12 35 be e2 e2 26 be 79 dc d0 be a7 ae 13 bc
       -0.17682758 -0.16297486 -0.40793207 -0.009013808
0002f0 67 1d 82 be b5 e8 f6 3d 29 bc e3 3d d6 ba 04 3e
       -0.25413057 0.12056104 0.11119873 0.12961897
000300 7e bc cd bd 72 3f b0 3d 95 64 ac bc 20 9b 70 be
       -0.10045718 0.08605851 -0.021044055 -0.23496675
000310 91 b5 9c be 2b 84 86 bd 91 98 0f 3e c3 4c 8b 3e
       -0.30607274 -0.06568178 0.14023043 0.27207002
000320 ba 4b 24 3e 14 ca fd 3b ce 34 83 3c 8d e6 01 3e
       0.16044512 0.007745037 0.01601639 0.12685604
000330 73 e3 c3 be d7 df 9d be 34 a2 e6 bd 4e 56 19 3e
       -0.38259467 -0.3083484 -0.112614065 0.14974329
000340 be 1e 2c 3c b0 6b 43 3e 6d db fd 3d fe 5c 46 bd
       0.010505376 0.19084048 0.12395368 -0.048428528
000350 57 d7 13 be f0 d8 7f be bf ec bd bd 90 ce 8d bd
       -0.14437614 -0.24985099 -0.09273671 -0.06924164
000360 ef e6 2e be c1 b3 41 3e 86 87 86 3e ac ea 05 bf
       -0.17080282 0.18916227 0.2627527 -0.52311206
000370 41 a9 23 be e1 82 ac bd a1 ef f5 3e 71 45 29 bc
       -0.15982534 -0.08423401 0.48034385 -0.0103314975
000380 3f f1 33 be 54 d8 40 be a7 e0 dc 3d 9a 00 16 3e
       -0.17572497 -0.18832523 0.107850365 0.14648667
000390 d1 34 ee be 11 57 d7 be b4 c2 2c 3b 6f e1 af 3d
       -0.4652467 -0.42058614 0.002636117 0.0858792
0003a0 b6 0c 4c be d3 11 11 be 51 25 9d 3d 6f f8 81 3e
       -0.19926724 -0.14166956 0.07673133 0.25384852
0003b0 b0 16 97 3e c8 82 b6 be b4 4f e9 bd c3 c7 60 3e
       0.29509497 -0.35646653 -0.11392155 0.21951203
0003c0 a5 01 c7 bd d3 55 0f be 8e 09 26 3d 7d 18 9c be
       -0.097171105 -0.13997583 0.040536456 -0.30487433
0003d0 98 75 ef bd 9e e1 d6 be 61 50 05 bf 8c c5 4d be
       -0.11692351 -0.41969007 -0.52075773 -0.2009489
0003e0 4f fb d6 bd c9 54 c6 be 74 8e 8a be c8 17 47 be
       -0.10497152 -0.3873656 -0.27061808 -0.19442666
0003f0 e6 91 cd 3e 51 90 31 3f 17 20 da 3e a4 a9 a8 3e
       0.40150374 0.69360834 0.42602608 0.32941926

conv1.bias f4 [28]
000000 3c 6e 1a 3e 83 fc 63 bb 7c 28 96 3d c4 d3 6f 3d
       0.15081114 -0.003478796 0.073319405 0.058551565
000010 c7 4e 03 bb 89 14 85 3e 41 58 04 3e 16 c4 74 be
       -0.0020035969 0.2599223 0.12924291 -0.23902926
000020 b5 97 52 3d 59 c2 d1 3d dd ff 38 3d c4 b1 9f 3d
       0.05141421 0.10242147 0.045165885 0.07797578
000030 22 1f 66 bb 33 9d 27 3d 27 ae 96 bc 4f 90 56 3c
       -0.0035113771 0.0409214 -0.01839359 0.013095929
000040 8a 82 b5 3c 84 3c 05 3d 81 ee 63 3e 29 39 08 be
       0.022156972 0.032528415 0.22258951 -0.13303055
000050 3c e5 2f bb 98 c4 63 3e 11 67 53 bb 42 76 a0 3d
       -0.0026839515 0.22242963 -0.0032257477 0.07835056
000060 47 25 42 3d 09 49 5e be d5 0a 15 3c 4e e5 d5 be
       0.04739883 -0.21707548 0.009096821 -0.41776508

conv2.weight f4 [48, 28, 3, 3]
000000 b9 0d 79 bf 5c 27 08 bf 79 e4 96 be d0 66 f4 be
       -0.97286564 -0.5318506 -0.29471186 -0.4773469
000010 36 c9 76 be 70 1e db be 21 8d 6c be 5d e2 30 3e
       -0.24100193 -0.4279666 -0.23100711 0.1727385
000020 3b 64 86 be 68 8e 64 3d 5d b1 9f 3c e8 28 eb 3d
       -0.26248345 0.05579987 0.019493753 0.114824116
000030 c1 bd 23 3d e5 6e d6 3d 82 ef 8c 3d d8 ed 5a bd
       0.039975885 0.1047037 0.0688162 -0.05344948
000040 ae fe 07 be 76 65 c6 bc ba f0 10 3e 81 85 7b 3e
       -0.13280746 -0.024218302 0.1415433 0.24562646
000050 0d 14 c3 3c 87 d8 a9 3d 53 55 19 3d 9b 88 2c bd
       0.023813272 0.082932524 0.037434887 -0.042122465
000060 6a 27 29 bd fc 44 db bd 5f 09 a4 bc fc 28 78 3d
       -0.041297354 -0.10706517 -0.020024 0.06058596
000070 9f 83 48 3d 08 54 e1 3d 7d 5c fa bd f8 1d 8f be
       0.04895365 0.11002356 -0.12224672 -0.27952552
000080 17 ee 61 be 31 98 8c be 76 f3 a3 be a9 90 23 be
       -0.2206348 -0.27459863 -0.32021683 -0.15973152
000090 d1 ab f8 bc 6e e0 b7 bb e2 49 07 be 1a 7d d3 bc
       -0.030355366 -0.005611471 -0.13211778 -0.025816489
0000a0 4d fa a0 3b 4f fe 90 3c 33 74 83 bd bc 29 06 be
       0.0049126507 0.017699389 -0.064186476 -0.13101858
0000b0 ce a4 16 be a9 db b2 3e 94 37 71 3e 33 50 3e 3e
       -0.14711305 0.34933212 0.23556358 0.18585281
0000c0 bf 65 04 3e d3 54 d9 3b 56 ff 0b 3e 10 ed 86 bd
       0.12929438 0.0066324263 0.13671622 -0.06588185
0000d0 c8 23 50 bb 5c 24 70 be 67 d0 d8 bc bc ac 4e bd
       -0.0031759609 -0.2345137 -0.026466561 -0.0504577
0000e0 25 cc a7 bd 90 fc 0d 3d c7 ff 7f 3c 95 fb 30 bd
       -0.08193234 0.03466469 0.015624947 -0.043208677
0000f0 26 47 b1 bd 07 4b 60 bd 65 a0 e2 bd 4c c2 a7 bd
       -0.086561486 -0.05475905 -0.11065749 -0.08191356
000100 a2 45 e6 3c 4b a8 a2 3c ff 69 c5 bd 73 87 11 3d
       0.028109375 0.019855639 -0.09639358 0.035529565
000110 c2 0f bb 3d b8 63 da 3c 8b 17 01 be 9d 79 ec 3b
       0.09133865 0.026658878 -0.12606637 0.007216646
000120 ca a4 9a 3d 3d 8e f5 3d 5f a7 5d 3e 62 e4 10 bb
       0.07550962 0.119900204 0.21645878 -0.0022108783
000130 04 65 aa 3d 49 21 20 3d 42 10 1f be e7 1a 3d be
       0.083200485 0.039094243 -0.15533546 -0.18467294
000140 04 37 0d be 90 06 a3 be 6b 08 73 be c2 64 e8 be
       -0.13790518 -0.31840944 -0.2373368 -0.45389372
000150 38 4a 85 be db fd a2 3d 7a b1 84 be d0 b5 eb 3d
       -0.26033187 0.07958575 -0.25916654 0.11509287
000160 78 78 6e bd 86 78 51 bc 9b 8a aa 3e 0c 4c 6f 3e
       -0.058220357 -0.012785083 0.33308873 0.23368853
000170 c4 c2 b4 3e ef 75 cd bd a2 bd 7a be c7 49 75 3d
       0.35304844 -0.1003226 -0.24486402 0.059884813
000180 20 07 2a 3e 03 dc 08 3f 93 82 11 3f 3c 1d df 3d
       0.1660428 0.5346071 0.56839865 0.10894248
000190 7e 65 fe 3b b1 fc 43 3d 25 81 0d be 4f d6 f1 bd
       0.0077635637 0.047848407 -0.13818796 -0.11808454
0001a0 e0 b1 fe bd a3 d9 72 be 58 63 2b be 74 a2 06 be
       -0.12436271 -0.23715834 -0.16737115 -0.13147908
0001b0 c0 eb 86 be 40 30 d3 bd 2d 60 cd bb ec 2d 8a be
       -0.26351738 -0.10311937 -0.0062675686 -0.2698816
0001c0 bf a0 93 be dc 2d 8f be cf 16 54 be 55 44 b7 be
       -0.28833577 -0.27964675 -0.20711826 -0.3579432
0001d0 b3 b6 3d be eb 91 92 3d 4d 1e 89 3e 45 ae 4e 3e
       -0.18526725 0.07156738 0.2678093 0.20183666
0001e0 9d 8f 91 3d 7d af b2 3d 5c dd 03 3e ce a8 e1 bd
       0.0710747 0.08724878 0.1287741 -0.11018525
0001f0 3d f5 08 be af 9b a6 bd b5 df 89 be 7f f9 7e 3d
       -0.13374801 -0.08135163 -0.26928487 0.062249657
000200 7b 01 aa be 41 39 eb be 46 4d 46 be f8 63 d8 be
       -0.33204255 -0.4594212 -0.19365415 -0.4226377
000210 c5 0c a2 be 52 da 95 3d 97 4f d0 3d 46 49 5d 3d
       -0.31650367 0.07317032 0.101714306 0.054024957
000220 46 cc 9c bd 44 83 8d 3e 91 0e 9c bb 36 05 a7 bd
       -0.076561496 0.2763921 -0.0047624786 -0.08155291
000230 97 14 e3 bd 1a 61 51 be 1f b7 e0 bd 72 e5 8a be
       -0.110879116 -0.20447198 -0.109724276 -0.27128178
000240 75 3f ac be c3 f4 2c be 31 e2 cb 3c 46 44 a6 be
       -0.33642164 -0.16890244 0.02488813 -0.32473963
000250 2b de 09 bf 4e 6b 51 be 92 8b d6 3b e3 13 10 be
       -0.53854626 -0.2045109 0.0065474 -0.14070086
000260 e1 44 31 be 4b 8d d2 be 71 3f c2 be fa 6c 8d 3c
       -0.17311431 -0.41123423 -0.37939027 0.017263878
000270 38 0d c2 bc db 97 ae be 56 f2 7a be 2f 5c 04 bf
       -0.023687944 -0.34100232 -0.24506506 -0.5170316
000280 7b be 12 bf 48 42 bb be 64 d4 d0 be 3b f7 81 be
       -0.573219 -0.36574006 -0.4078704 -0.25383934
000290 3a 6e 4b be d7 a4 88 be 2e 35 8a be 29 33 b2 be
       -0.19866267 -0.26688263 -0.26993698 -0.34804657
0002a0 d5 5d 71 be 2d 34 9f bb d7 2b a6 be 5b a4 09 be
       -0.2357095 -0.0048585148 -0.32455322 -0.13441603
0002b0 74 e4 3f bd 9a 19 73 be da c0 fa bd bf dc 24 be
       -0.04684873 -0.23740235 -0.12243815 -0.16099833
0002c0 f8 b8 6b be b6 76 d1 be 36 38 cb be 18 f1 93 be
       -0.23019779 -0.40910882 -0.39691323 -0.28894877
0002d0 f8 f8 86 3d 0f 34 ac 3d c2 19 a6 bc 1a f7 8d bc
       0.06590456 0.08408367 -0.020275954 -0.017329741
0002e0 79 5c f4 bd bf 55 87 3d af 5b 32 be 43 95 20 be
       -0.119317 0.06608152 -0.17417787 -0.15681939
0002f0 13 a9 50 be a3 71 c1 3e eb 21 bb 3e 22 fc 11 3e
       -0.20376997 0.3778201 0.36549315 0.14256337
000300 7b 1a c0 bd ae a7 17 bd ef 71 8f bd bf 4b 28 bf
       -0.09380051 -0.037025146 -0.07004153 -0.6574058
000310 13 31 21 bf 0b b7 0d bf 48 cf 1a 3e ea c5 8b bd
       -0.62965506 -0.55357426 0.15118134 -0.068248585
000320 6f 08 8c 3e 2c 15 44 bd 9d 94 c1 bc 0c 39 6f 3d
       0.27350184 -0.047871754 -0.023630435 0.058404014
000330 9e 9d f7 bc 96 76 4d 3e 26 dc 44 bb c4 d8 cc 3d
       -0.030226525 0.20064768 -0.0030038445 0.10002282
000340 09 39 8a 3e ca f3 8a 3e 8a 57 a4 3d cb 7c b0 3d
       0.2699664 0.2713912 0.08024509 0.08617552
000350 01 43 02 3c 47 10 b9 bd d1 1f 83 bd 30 00 16 be
       0.007950545 -0.09036308 -0.06402553 -0.14648509
000360 9b ce 95 3e af a7 92 3e 3e b4 9e 3e bc 0e 30 3e
       0.2925919 0.28643557 0.3099689 0.1719312
000370 fc 7f 27 3e 54 41 90 3e 97 47 23 3e 56 68 95 3d
       0.16357416 0.2817484 0.15945278 0.07295291
000380 96 f1 d1 3d 80 49 86 bd 65 c5 d4 bd 42 e6 62 be
       0.10251157 -0.06556988 -0.103892125 -0.22158149
000390 e8 9f 69 bd a3 16 26 be 3f f3 53 be 6b 5d bc bd
       -0.057037264 -0.16219573 -0.2069826 -0.091975056
0003a0 2b e9 2f be 4c 56 86 bd 78 66 f6 3d 55 3b 8f 3d
       -0.1717879 -0.065594286 0.12031263 0.069937386
0003b0 13 a7 29 3e 0e d9 31 3d 19 aa ed bd 4f 49 a1 3b
       0.1656764 0.04341989 -0.11604709 0.004922069
0003c0 93 34 e7 bd ad d0 45 be 64 32 40 be cf 91 00 be
       -0.112893246 -0.19317885 -0.18769222 -0.12555622
0003d0 e3 37 98 bd 9d 15 0c be 03 bf 5b be 09 34 da 3b
       -0.074325345 -0.1368012 -0.21459584 0.006659035
0003e0 9f b5 38 3d 21 c0 10 be fc b9 0c be 80 8b cb bd
       0.045095082 -0.14135791 -0.13742822 -0.09938717
0003f0 38 6e 5f be 0b 0a 08 be 62 4d 47 be f6 ca 0d bd
       -0.21819389 -0.13285081 -0.19463113 -0.034617387

conv2.bias f4 [48]
000000 db fd 92 bd 65 43 3c 3d b3 33 0a bd 2b 2d 01 3e
       -0.07177325 0.04596271 -0.03374071 0.12614886
000010 b8 a4 1c 3f fc a2 95 be 73 a2 7d 3c 69 be ac 3e
       0.6118884 -0.2922591 0.015480625 0.3373902
000020 37 1e 91 bf 3d 84 9b bc de ce f0 bd 53 47 8c be
       -1.1337346 -0.018983955 -0.11758207 -0.27398166
000030 62 bc a8 3e 21 6e 02 bf cc 7c ff 3e 69 3e 82 3d
       0.32956225 -0.50949293 0.498999 0.0635956
000040 f3 d6 7e 3e 2b e9 b0 3c 73 3b 30 be 77 f9 84 bd
       0.24886684 0.021595558 -0.17210178 -0.06492894
000050 c0 38 b8 be ed 43 6a 3e a9 fe 84 3e e3 6b b9 3d
       -0.35980797 0.22877474 0.2597554 0.09053781
000060 40 6b 8c be 2f 43 bb 3d d9 f6 59 3e 02 f0 f8 bd
       -0.27425575 0.09143674 0.21285571 -0.12155153
000070 d5 29 52 3d 36 bc b4 be a3 1f c5 3e cc 76 00 3e
       0.051309425 -0.35299844 0.385007 0.12545317
000080 dc b4 15 3c 0f d3 78 be 41 73 55 3e d1 63 fb 3c
       0.0091373585 -0.24299262 0.20844747 0.030687245
000090 75 86 58 be 6c c2 1f bd 23 bb ea be ea 1d a6 be
       -0.21145041 -0.039003775 -0.458459 -0.32444698
0000a0 3f d4 4a be a4 a9 6c be 44 f0 e7 bd a5 ab 96 be
       -0.19807528 -0.23111588 -0.11325124 -0.2942783
0000b0 bc c8 38 3d e4 32 ea 3e d7 00 1f be 89 d3 bc 3c
       0.04511331 0.4574195 -0.15527664 0.023050087

conv3.weight f4 [64, 48, 2, 2]
000000 62 9f b9 3e a3 9b 53 bd 4d fa f7 bd 54 d6 e4 3d
       0.36254412 -0.0516621 -0.12108288 0.11173692
000010 61 9f 10 be 5c a2 cb be 34 ff 10 3f fe 7d 3d be
       -0.14123298 -0.39772308 0.5663941 -0.18505093
000020 0c 05 b9 be f1 f7 b8 be 31 7e df 3c 18 f5 d2 3d
       -0.36136663 -0.36126664 0.027281852 0.10300654
000030 8a 92 03 3f 13 32 90 3e a3 b0 73 be ff e4 4d be
       0.51395476 0.28163204 -0.2379785 -0.20106886
000040 4c 67 d3 bd 19 d5 b0 3e 43 bb 6e be 77 56 8a 3e
       -0.10322437 0.3453758 -0.23313622 0.27019092
000050 e1 c6 aa 3c 6b ec 39 3e 29 51 c6 be 40 48 35 be
       0.020846786 0.18156593 -0.38733795 -0.17703342
000060 f7 01 fa be e5 ed d6 be 42 f7 45 bf c1 66 6e bf
       -0.48829624 -0.41978374 -0.7733041 -0.9312554
000070 9b 23 4d bd 46 34 19 bd ce f7 c2 3d 0d 89 5c bd
       -0.050082784 -0.037403367 0.09519921 -0.05384164
000080 07 a9 df 3e 82 cb 33 be 0c 11 df be 16 7e 52 be
       0.43683645 -0.17558101 -0.43567693 -0.2055591
000090 7d da 7e 3e 67 dc ed 3d 6c 97 88 3d 4b 49 f1 3d
       0.24888034 0.11614304 0.066695064 0.11781558
0000a0 ce 0e 04 bd c5 e8 0c 3e 5c 12 b1 3e b6 8b 88 3e
       -0.03224068 0.1376067 0.3458432 0.2666909
0000b0 ed e0 ed 3e 20 92 06 3f 7e e7 b9 3e 6c 26 24 3e
       0.46460667 0.5256672 0.36309427 0.16030282
0000c0 a1 1c 03 3f 7b 3a b9 bd 16 a0 b7 be b4 68 28 bf
       0.5121556 -0.090443574 -0.35864323 -0.65784764
0000d0 d4 00 2d be 0d 01 e5 be 63 45 8b be 87 ac 2a be
       -0.16894847 -0.44727364 -0.27201375 -0.16667376
0000e0 75 cf 1b 3d 25 af f1 bd 82 24 4f 3e 1c df c2 3e
       0.038039643 -0.11800984 0.2022877 0.38060844
0000f0 95 b4 07 3e 96 e3 76 3e d2 01 da be a8 c5 15 bf
       0.1325248 0.24110255 -0.42579514 -0.58504725
000100 1c a3 b3 3d 8e d4 07 be ca 99 44 bd e5 27 c4 bd
       0.08771345 -0.13264677 -0.047998227 -0.09577922
000110 94 11 b6 be cb dc e0 be 49 8d 4c be cc 7b df 3d
       -0.35560286 -0.43918452 -0.19975771 0.10912284
000120 33 ae fc 3c 7e 67 da be 1d b1 28 3c 25 78 11 bf
       0.030844783 -0.42657083 0.010296133 -0.5682395
000130 1e 1e 37 be f7 a8 cb bd fa 9c 10 3e 78 24 b1 3d
       -0.17882583 -0.09944337 0.14122382 0.08649534
000140 7c 30 ee 3d 50 06 26 3e 13 87 bf 3e 14 e8 fc 3e
       0.116303414 0.16213346 0.3740774 0.49395812
000150 73 96 fa 3d 41 be 8d 3e c2 09 dd 3e 7a 54 b8 3e
       0.12235727 0.27684215 0.43171507 0.3600195
000160 43 95 fc be 4e 10 1f bf b0 2b 83 be 14 a7 4c be
       -0.49332628 -0.62134254 -0.25619268 -0.1998561
000170 86 83 95 3e 15 86 b6 be 50 3e 12 3e 84 38 9c be
       0.29201907 -0.3564917 0.14281583 -0.30511868
000180 99 a1 6e 3d 9f e1 b6 3d 7a 8a f1 be 91 12 88 3d
       0.05825958 0.089297526 -0.47175962 0.06644166
000190 4b da a0 3d 50 ac 5a bb f4 63 2f be 7b 42 98 3e
       0.07854136 -0.0033366866 -0.17127973 0.2973822
0001a0 2f c9 a2 3e 54 14 ac 3e ca ac b3 3e e3 35 1e 3e
       0.31794116 0.3360926 0.35092765 0.15450244
0001b0 4a 6e 9e 3e 63 15 3d 3e 9e 67 21 3e b7 2c 13 3e
       0.3094352 0.1846519 0.15762183 0.14372526
0001c0 c2 b8 d3 3e 41 bb 7a 3e a4 55 d8 3e 35 51 92 3e
       0.41351897 0.24485494 0.4225284 0.2857758
0001d0 be 80 fc 3e 63 e0 49 3f ff f6 59 bd b9 70 52 be
       0.49316972 0.7885801 -0.05321407 -0.20550813
0001e0 08 93 c0 3d f6 74 02 3f 2a bc e1 3d 4d 15 21 3e
       0.09403044 0.5095972 0.110222176 0.15730782
0001f0 a6 be fd bc 26 01 85 bf a6 b5 09 be 31 64 3a bf
       -0.030974697 -1.0390975 -0.134482 -0.7280913
000200 c5 a0 93 3e eb 49 d0 3d 54 83 bc be 44 d5 5f be
       0.28833595 0.10170349 -0.36818945 -0.21858698
000210 be 9d 3d 3f 6f 8b 8a 3e 4c 43 41 bd fa f2 87 bf
       0.7406882 0.27059504 -0.04718332 -1.0621026
000220 77 37 e2 3e 8b ea 90 be ac 47 15 3f 0e 2c 48 bf
       0.4418294 -0.28303942 0.5831249 -0.7819222
000230 7a 9a 95 3e 69 1e 0a 3d 59 f2 52 be ff 3b 8b be
       0.2921942 0.033720408 -0.20600261 -0.2719421
000240 bc 8a f4 3e 48 5c 67 be b1 12 86 be 55 c7 3b be
       0.47762096 -0.22593796 -0.26186135 -0.18337758
000250 4e 0b d3 bc dd 22 91 3e df 91 d9 3e bc 24 f7 3e
       -0.025762226 0.2834691 0.42494103 0.48270214
000260 19 08 02 3f 39 83 9c 3d 54 91 0c be 2f e1 01 be
       0.50793606 0.07642216 -0.13727313 -0.12683557
000270 38 03 11 bd 15 0c 12 bf b1 ae 4e bc bb de d4 be
       -0.03540346 -0.57049686 -0.012614892 -0.4157618
000280 d3 8b 27 3e 2a 87 b5 3e 8b b5 89 bd a5 5f df 3d
       0.16361932 0.35454684 -0.0672408 0.109069146
000290 a6 eb 21 3e 80 b5 80 3c df bd ba 3d b5 ec 9f 3e
       0.15812549 0.015711546 0.09118246 0.3123528
0002a0 d4 1f f4 3d fe 80 c4 3d a0 d7 d0 be 1f e8 f0 be
       0.11920133 0.09594916 -0.4078951 -0.47052094
0002b0 6c f6 83 bd b7 02 62 3e 40 ad f4 be 8f 9e 68 3e
       -0.064434856 0.22071348 -0.4778843 0.22716735
0002c0 02 d0 e8 be f8 aa 52 bf 52 8a 6c bd b3 ac d0 be
       -0.45471197 -0.8229213 -0.0577491 -0.4075676
0002d0 83 58 17 3f e0 5a db 3e 21 bb bd 3d 82 a5 19 be
       0.59119433 0.4284277 0.09264208 -0.15004542
0002e0 f0 d5 c0 3e 04 e5 ab be 9d 49 03 bf b7 4e 08 bf
       0.3766322 -0.33573163 -0.512842 -0.5324511
0002f0 54 6a a5 3e 4b 0c 0f 3f 2b 4c be bd 36 e3 48 be
       0.32307684 0.5587813 -0.09291872 -0.19617924
000300 56 eb ce 3d 30 ee 65 3d a4 c6 bd 3e 3d 7c af 3e
       0.101034805 0.056135356 0.37065613 0.34274474
000310 bc d0 c6 3e 5c 63 26 3e 26 c2 90 3e 25 b4 d0 3e
       0.38831127 0.1624884 0.28273124 0.4076244
000320 6a 60 05 be a0 18 98 be be 8c d9 3d cd f7 3e be
       -0.1302506 -0.29706287 0.106225476 -0.18649216
000330 ac 28 4e bf 4c a1 f6 be fe fc 63 be e0 e7 a2 bd
       -0.8053081 -0.48169935 -0.22264478 -0.07954383
000340 ab 36 eb 3e 20 ab 28 be f0 a6 0f 3f 3b e6 0f be
       0.45940146 -0.16471529 0.561141 -0.1405267
000350 d0 5c 59 3c ee 37 31 bd 2f 82 3c 3e 5f 72 3f 3e
       0.013266757 -0.04326623 0.18409036 0.18695973
000360 a2 f5 2f be 56 9e a6 be 31 ea c7 bb 46 8e 3c be
       -0.17183545 -0.32542676 -0.006100916 -0.18413648
000370 75 63 03 3e 1e 07 35 3e fb 90 af 3e 45 12 54 3d
       0.12830909 0.17678496 0.342903 0.051775236
000380 41 3a 00 bf a4 20 0a bf 21 9e 99 be 77 f8 7a be
       -0.5008889 -0.53956056 -0.30003455 -0.24508844
000390 bc 85 e4 bc 06 5c e9 be de ef 0a 3e d7 6c 46 be
       -0.0278958 -0.4557802 0.13568065 -0.19377457
0003a0 04 b0 d0 3c e1 c2 54 be db 3f ec 3d 2d 64 d3 bb
       0.025474556 -0.20777465 0.11535617 -0.006451151
0003b0 e1 ea 1e 3f ad 9e a7 3e a9 6f 08 3f 29 f9 01 3f
       0.62077147 0.32738248 0.5329538 0.50770813
0003c0 dc 59 81 3d 35 e2 0a 3e e1 b0 0e be 34 c7 ea bd
       0.063159674 0.13562854 -0.13934661 -0.11463776
0003d0 b2 39 d5 be 95 b9 12 3e 0b 91 ed be 07 30 31 be
       -0.4164558 0.14328606 -0.46399722 -0.17303477
0003e0 39 62 9b 3e 77 ea 4f be 1e 0c 90 3d 9c 9d c7 bd
       0.30348375 -0.20304285 0.07033561 -0.097468585
0003f0 a0 5e 8e bd 34 2b b8 3e 40 df d3 bd 31 95 b5 3e
       -0.06951642 0.3597046 -0.10345316 0.35465387

conv3.bias f4 [64]
000000 72 b0 aa 3d af 29 30 3d a7 dd c9 bd 55 d6 83 3d
       0.083344355 0.043008503 -0.0985673 0.06437365
000010 a8 7d 44 3f 88 d8 ab bd 28 e3 20 3f ec 95 da bc
       0.76754236 -0.083909094 0.6284661 -0.026682816
000020 d5 14 d3 3e f5 22 46 3f be cf 4a 3d 8b 0d 09 bd
       0.4122683 0.7739709 0.049514525 -0.03346018
000030 fe 36 f1 3e 86 c7 f3 3e ae f7 93 bd 1b dd eb 3d
       0.47112268 0.47613162 -0.072249755 0.11516782
000040 0f a3 76 3e 94 a9 fc 3e 66 7a c5 3f 7f ec e6 bd
       0.2408564 0.49348128 1.5427978 -0.11275577
000050 c0 18 3e bc ae 37 1f bf f6 59 fe 3b 5d 25 41 3f
       -0.011602581 -0.62194335 0.007762189 0.75447637
000060 7b ca 73 3f b4 70 04 bd 9e e0 b2 bb 2e 2a 0e 3e
       0.95230836 -0.032334045 -0.0054589054 0.13883278
000070 ac f9 41 3e 05 40 41 3f e8 09 e4 be 7a 93 f1 3c
       0.18942899 0.7548831 -0.44538808 0.029489268
000080 d4 65 43 3e 65 cf 22 bd d8 eb 9a 3e 4b 75 07 3f
       0.19081813 -0.039748568 0.3025806 0.5291335
000090 6c 5b 8f 3e 16 2c 37 3f fe 99 13 be 7c e7 de bd
       0.27999437 0.71551645 -0.14414212 -0.10883996
0000a0 98 28 b6 3e b9 ba 6d 3e f6 ef 74 bf c5 6a 12 bc
       0.35577846 0.2321576 -0.9567865 -0.008936589
0000b0 99 22 2a 3f 4f d2 14 be ad ce 76 3f 5c 53 44 3e
       0.6645904 -0.14533351 0.9640911 0.19172424
0000c0 d1 35 0d be 11 a8 b7 3e 8d 57 1f 3e 48 3c c1 3e
       -0.1379006 0.35870412 0.15560742 0.37741303
0000d0 8e 9a ef 3e 68 d9 cc 3c ce 57 09 3a ae 79 3d bd
       0.46797603 0.025006011 0.0005239219 -0.04625862
0000e0 ed f1 15 3e fa 3e 90 3d 2d 78 65 3d d1 3b cc 3d
       0.14643069 0.07043262 0.05602281 0.099723466
0000f0 e2 5a c2 3d 2a 69 7e 3d 1c fb ee 3e 56 70 ea 3e
       0.09489991 0.06211201 0.46675956 0.4578883

conv4.weight f4 [128, 256]
000000 3d db 6e bd d7 ee f9 be 36 87 41 bd 34 7f 7c be
       -0.05831455 -0.48815033 -0.047248088 -0.24657899
000010 a4 99 c7 3d 46 b4 6d 3e 4d fb 2d 3e 63 38 04 3e
       0.097461015 0.232133 0.16990395 0.12912135
000020 94 a0 ac 3e 8a c4 9f 3e 9c 56 dd 3e a0 f1 a8 3e
       0.3371626 0.31204635 0.4323014 0.32996845
000030 cc ba 83 bd e5 82 51 be 70 b1 09 be a4 2f 24 be
       -0.06432113 -0.20460089 -0.13446593 -0.16033798
000040 35 e4 7c 3e 2f 94 d2 3d 82 75 2a bb ed 07 ab bc
       0.24696429 0.1028217 -0.0026009982 -0.020877803
000050 3e c0 29 be 2f 59 6a 3d cd 9b f2 be 0e f5 68 be
       -0.16577241 0.05721396 -0.47384492 -0.22749731
000060 15 28 47 3e d7 bf 0a 3e 5d 5f 1b bd 21 54 40 3c
       0.19448884 0.13549744 -0.037932742 0.011738808
000070 c8 65 83 3c b2 89 59 3d 66 1f de be 6f 4b 37 be
       0.016039744 0.053109832 -0.4338333 -0.1789987
000080 1a a1 1a 3e 99 b0 ce 3d 85 9b e1 3d b8 0e 11 3e
       0.15100518 0.10092277 0.11015991 0.14165771
000090 0a 4d a8 bc 6e 66 27 3d 0d dc ae 3e 03 e2 92 bd
       -0.020544548 0.04086917 0.3415226 -0.071720146
0000a0 83 b2 3f be ad 1b 0b be 6d 09 0f 3e 1d 50 52 bd
       -0.1872044 -0.13584776 0.1396844 -0.051345933
0000b0 37 55 84 3e 3e e0 9a 3e cf e8 bf 3d 00 4e d8 3e
       0.25846264 0.30249208 0.093705766 0.4224701
0000c0 b1 bc 7c be fb 77 48 be 95 32 42 be cb 7d fc bd
       -0.24681355 -0.19577019 -0.18964608 -0.123286806
0000d0 ff 60 bd 3d 4f f7 85 3e e1 55 e9 3d 56 09 68 3e
       0.09247016 0.26165244 0.11393333 0.22659811
0000e0 69 3e e6 be 96 9a 9b be af d8 83 be 26 e2 ac be
       -0.4496949 -0.30391377 -0.25751254 -0.33766288
0000f0 5f 14 d4 3d 59 41 26 be 61 3a d6 3e ce f5 9a 3d
       0.10355448 -0.16235866 0.41841415 0.07566415
000100 c2 63 89 be 26 5d b8 3c ce db c2 3d 9e 03 62 be
       -0.26833922 0.022505354 0.09514581 -0.22071692
000110 6f d0 83 bd 23 83 ef bc 48 a6 ea 3d 9a 53 32 be
       -0.0643624 -0.029237336 0.11457497 -0.17414704
000120 8c 9c 87 be 5e f9 3f be 68 e9 51 bc fb fc 48 3c
       -0.26486623 -0.1874747 -0.012811996 0.0122673465
000130 93 4a 6d be 04 6c a8 be 72 0d 74 be fb 6b e5 bd
       -0.23172979 -0.3289491 -0.23833254 -0.11202236
000140 d8 e9 39 3e 66 cf 1d 3f ea d1 01 3e 12 57 aa 3e
       0.1815561 0.6164459 0.12677732 0.33269554
000150 c3 08 80 be 84 08 97 be a8 15 a4 be 72 dc 90 be
       -0.25006685 -0.29498684 -0.32047772 -0.28293186
000160 2b b6 6c 3e f1 3d 4b 3c 8f 73 3f bd be d6 00 3c
       0.23116367 0.012404905 -0.046741065 0.0078636985
000170 77 21 6e bd 4b b6 88 be 90 6f 70 3d f4 ee 50 bd
       -0.058137383 -0.26701578 0.058700144 -0.051009133
000180 e4 c9 24 3e ca 3c de 3e bf f8 eb be db 5e 7c bd
       0.1609264 0.43405753 -0.46088216 -0.0616139
000190 7a b2 07 3e 78 12 f5 3b 40 58 d6 3c da d8 13 be
       0.13251677 0.0074790083 0.026165128 -0.14438191
0001a0 5b c9 97 bd 49 bb 65 bd bf c5 9c bd e7 6c 48 bd
       -0.074114524 -0.056086812 -0.076549046 -0.048931982
0001b0 9c d7 88 3e 80 ef ca 3e 1c 16 d3 3d fc 43 35 3d
       0.26726997 0.3963585 0.103069514 0.044254288
0001c0 bb 2f 4f be 9a 46 d1 3d 11 82 22 bd 04 73 3d bd
       -0.20233051 0.10218544 -0.039674822 -0.046252266
0001d0 c4 b4 73 3e 0d 24 84 3d db 58 30 3e 24 a5 66 bd
       0.23799425 0.06452189 0.17221396 -0.056309834
0001e0 76 81 7a be 61 ff 3f be 59 39 01 bf a1 dd ea be
       -0.24463448 -0.18749763 -0.5047813 -0.45872214
0001f0 41 39 52 bd d8 ec c8 ba 9f 42 9d bd b1 33 43 3d
       -0.051324133 -0.0015329374 -0.076787226 0.04765672
000200 d2 f2 4d be f8 a6 f8 bd a3 c9 ba be b5 c6 6e be
       -0.2011216 -0.12141222 -0.36481962 -0.23317988
000210 6a ba 2d 3e d8 b6 41 be 5e 8d 18 3e 7c b6 43 3d
       0.16965643 -0.18917406 0.14897677 0.047781453
000220 12 28 ba bd 9f 8b 2d be ce a9 2c be 7d 9c 78 be
       -0.09089674 -0.16947792 -0.1686165 -0.24278446
000230 de 6b 37 bc 65 54 22 3e 86 9a 98 bd 78 c2 06 be
       -0.011195151 0.15852506 -0.07451348 -0.13160121
000240 49 1d 69 be 4b 02 e2 3d d5 87 86 3d e9 28 47 3d
       -0.22765078 0.110355936 0.06568877 0.048623
000250 77 44 01 bc d7 ee 01 3e c7 60 92 bd 22 ff 00 be
       -0.007889858 0.12688766 -0.07147365 -0.12597325
000260 15 b7 10 be 6c a4 26 be 35 99 4b be 14 30 be be
       -0.1413234 -0.1627366 -0.19882663 -0.37146056
000270 29 de 91 bd 7c 6d 08 3e 25 a8 83 be bb 16 18 bc
       -0.07122452 0.13323015 -0.25714222 -0.009282763
000280 83 16 15 3f 7c e3 e5 3d 8c 83 4f be 6f 86 b1 be
       0.58237475 0.1122503 -0.20265025 -0.34672877
000290 a7 9a ce bd fb 73 47 be f8 e2 ec bd cf 7d fa bd
       -0.10088091 -0.19477837 -0.11566728 -0.12231027
0002a0 67 36 3e be 71 1a b9 bc cb 96 0b bf 1d 06 4a bc
       -0.1857544 -0.022595616 -0.54526967 -0.012330559
0002b0 51 ab 30 be c3 63 2f be 9b 42 36 bd e7 0a 84 3e
       -0.17252852 -0.171279 -0.044497114 0.25789568
0002c0 01 e6 86 be b7 19 dc bd 4b 4a 36 be 59 c6 a4 be
       -0.26347354 -0.10747092 -0.17801778 -0.32182577
0002d0 23 b3 05 be 53 44 b9 3c 45 84 1b be f1 da 53 bd
       -0.13056616 0.022615587 -0.15187176 -0.05172247
0002e0 2c 4c 64 bd 05 5a 4a be 64 7f bb bd ab c0 1d be
       -0.055736706 -0.19760902 -0.09155157 -0.15405528
0002f0 16 6c 68 bd cf 37 d0 3c 36 6c fb 3c d9 fd 20 3d
       -0.056743704 0.025417237 0.030691247 0.039304588
000300 86 96 6a 3e 26 2f 88 3e 1d 9f 1e 3e f3 74 4c 3e
       0.22908983 0.2659847 0.15490384 0.19966488
000310 5e dc ed 3d 12 bb c4 be 4b 3c 24 3e 8f 5e ad 3e
       0.11614297 -0.38423973 0.16038625 0.33861205
000320 70 5c 36 bc 04 3d 78 3d d7 b2 91 3b 2c fd 5b bd
       -0.011130437 0.060605064 0.004446368 -0.05370824
000330 c6 57 a9 3d 9f 54 5e 3b 99 10 bf 3d 59 23 6e 3e
       0.082686946 0.003392495 0.093293376 0.23255672
000340 6c 5e 47 be 3a fd b5 be aa b7 12 bf 12 a6 ad be
       -0.19469613 -0.3554476 -0.573115 -0.33915764
000350 8f 53 43 bd 15 95 bc 3c 68 27 62 be fe cd 90 bd
       -0.04768711 0.023020307 -0.22085345 -0.0707054
000360 cf 1a 20 bd 3f 44 05 3c 6c 99 d0 be c1 fb 81 3e
       -0.039088067 0.008133947 -0.40742052 0.25387385
000370 49 97 95 be 16 e3 01 3d d1 23 51 be 16 42 a3 be
       -0.29216984 0.031710707 -0.20423819 -0.31886357
000380 c0 1f 58 3e 25 5e db 3e 6b 95 c0 3c bc e7 61 3e
       0.21105862 0.42845264 0.023508748 0.22061056
000390 29 f2 f8 3e ae 19 cf 3e 91 de 0c 3f fa 82 e0 3e
       0.48622254 0.4044928 0.5502711 0.43849927
0003a0 f4 43 d7 3c 67 13 69 3c 31 81 fe 3b 22 6b ae 3d
       0.02627752 0.014225817 0.0077668657 0.08516528
0003b0 47 f3 e7 3d ef 25 9d 3e e3 9e 0e 3e 4a 2f 3a 3e
       0.11325698 0.30693004 0.13927798 0.18182102
0003c0 74 b0 5e 3c 24 36 3f 3e f7 84 e8 bd af 37 26 3e
       0.013591874 0.18672997 -0.11353486 0.16232179
0003d0 a9 8c 97 3e c5 73 8b 3e 33 c5 24 3e 0a f3 ae 3e
       0.29599503 0.27236763 0.1609085 0.341698
0003e0 4b d2 f1 bd 78 61 3f be 35 9e 13 be a5 af ac be
       -0.11807688 -0.18689525 -0.1441582 -0.33727756
0003f0 04 eb 2d bd 9a bf 9a bd 2c 2a 00 3d 8b c6 c1 3c
       -0.042460456 -0.07556076 0.03129022 0.023654243

conv4.bias f4 [128]
000000 7d 45 a0 3e b7 93 48 3c cd da 5d bd 2e 9b 86 3c
       0.31303015 0.012242249 -0.054163743 0.016431417
000010 26 d7 74 3e 79 30 0f 3b 6f e2 6e bd 2b eb 5d ba
       0.23910198 0.002184896 -0.058321413 -0.0008465524
000020 4d f1 00 3e 96 56 51 bd c9 cd 86 3f 36 56 e2 bd
       0.12592049 -0.051107965 1.0531551 -0.110516
000030 9d 2c b7 3e ab 3b 3e 3b 81 7b c7 bc 69 5b b7 3d
       0.35776225 0.0029027264 -0.024350883 0.08952982
000040 5d eb 4f 3e b3 28 a0 3e c2 ec 6e 3c 81 61 f2 3d
       0.20304628 0.3128105 0.014582815 0.11835004
000050 be 19 61 bd 17 a5 77 bd 1e 53 56 3f 0e 0a de 3d
       -0.05495619 -0.060460176 0.83720577 0.108417615
000060 35 67 a2 3b 19 a7 08 be 32 55 c4 3c 67 25 7e bd
       0.004956151 -0.13344993 0.023966406 -0.06204739
000070 5f 2f 4d 3d 4b 09 bc 3e 49 4c 86 be 51 f0 50 3c
       0.050094005 0.3672584 -0.26230076 0.012752608
000080 9f c8 3c 3d 20 17 a9 3c bb c2 dc 3e 63 0a ad bc
       0.046089765 0.02064091 0.43117318 -0.021123117
000090 bd 24 9c bd 92 28 99 3d 9c e4 dd bd 34 4d 40 3d
       -0.07624195 0.07478441 -0.108346194 0.046948627
0000a0 c1 e7 63 3c 67 e2 eb bc a7 a4 09 3f 77 8d 09 3d
       0.013910235 -0.02879448 0.53766865 0.033582177
0000b0 1e a0 fe bb 0e 93 0d 3d c6 97 c2 be fe 59 2a 3f
       -0.0077705523 0.03456407 -0.3800642 0.6654357
0000c0 24 7e 9c bd 5c 02 19 3d 9e e1 5e 3e 50 bd 95 3d
       -0.07641247 0.037355766 0.21765754 0.07311499
0000d0 e6 fc 00 bd 9a 38 03 3f ad 4a 4c 3e 43 f7 58 bc
       -0.031491183 0.5125824 0.19950362 -0.013242546
0000e0 29 e7 37 3f d0 43 19 3d 99 a8 69 3e 3b 7a bb 3d
       0.718371 0.037418187 0.22818221 0.09154173
0000f0 ba af b2 39 7a 95 e9 bc 19 a7 c7 3e ad 83 41 3f
       0.00034081732 -0.028513659 0.38994673 0.75591546
000100 6c 1c d5 bc 65 11 19 bc 4d ca 4d 3f aa 26 71 3c
       -0.02601453 -0.009342526 0.8038681 0.014718691
000110 f5 aa 1e bc 7a 76 18 be a5 4f e9 3e ac df 0a 3d
       -0.009684314 -0.14888945 0.45568576 0.033904716
000120 e1 16 a0 3d 75 ef 11 3e 47 ef 74 3f 9d c1 08 3f
       0.07816864 0.14251502 0.9567761 0.5342043
000130 70 85 67 3f d5 05 6b 3c f4 23 07 bd c4 b7 35 be
       0.90437984 0.014344652 -0.032993272 -0.17745882
000140 0b 1b 73 3d 62 a3 89 3e ee 79 f4 bc 9e 96 1c 3f
       0.059351962 0.26882464 -0.029843297 0.61167324
000150 0e 53 4a 3d fb 45 98 bc 2b 90 13 be 49 46 ee bc
       0.049395613 -0.018588057 -0.14410464 -0.029086249
000160 19 ec e0 3c 9f 89 c4 bd a4 50 5e be 90 8b 7f be
       0.02745633 -0.09596562 -0.2171045 -0.24955583
000170 84 01 e1 3c c3 e4 43 3d 6b 2f e6 bd cd ae 1c bd
       0.027466543 0.047825586 -0.11239513 -0.03825264
000180 68 e5 79 3d b4 14 2b 3c 3d 92 0b 3d 63 4d ce 3e
       0.061009794 0.010441948 0.03407501 0.40293416
000190 d2 ee 15 3f b0 7a a7 bc cf d4 1d 3f 49 d0 5d 3f
       0.58567536 -0.020444244 0.61652845 0.8664594
0001a0 bf b3 4a bb 62 b4 3b 3f e5 d0 b5 3d 84 02 c9 3f
       -0.003092989 0.7332212 0.08877734 1.5703893
0001b0 b6 76 ed 3e f3 64 ba 3d 48 a1 a5 3b 51 a9 0e 3f
       0.46379632 0.09101286 0.0050546266 0.55727106
0001c0 45 4b 66 3c bc 9c 01 3d 24 fa 39 bc d1 60 6c 3c
       0.014056032 0.031643614 -0.011351142 0.01442738
0001d0 f5 04 0e 3f 67 03 65 3e 7e 38 c3 3c 09 34 ec bd
       0.55476314 0.22364579 0.023830649 -0.115333624
0001e0 d2 cc bd 3e 3e bf 35 3e 24 25 f8 3c a6 28 7e 3f
       0.37070328 0.17748734 0.030291148 0.99280775
0001f0 88 7b 49 be 0f 4b ab 3e 8d ed 1f 3e 86 cc 17 bf
       -0.1967603 0.33455703 0.15617962 -0.59296453

conv5.weight f4 [15, 128]
000000 a2 7b 67 bd 44 6a 89 3b c7 dc 27 3e 7b 40 5d 3c
       -0.05651439 0.004193576 0.16392814 0.013504143
000010 1f 54 49 3e 69 b3 92 bd 8b 4f f1 bd d4 47 05 3d
       0.19660996 -0.07163126 -0.1178275 0.032539204
000020 06 87 3f 3e 1a cd cc 3c af a2 46 bd fe 8a 4b bc
       0.18703851 0.025000144 -0.04849499 -0.012423275
000030 ce 27 29 bc f5 66 8a bb ef e4 d2 bc 82 06 28 be
       -0.010324432 -0.004223699 -0.02574393 -0.16408733
000040 ce ef 22 3d 0c 31 5c be fd cf 4b bd ee 32 1c be
       0.039779477 -0.21503085 -0.0497589 -0.15253803
000050 8e 22 0d 3d 19 8d e4 3d 40 36 ac 3c 31 84 7d be
       0.034456782 0.11159725 0.021021962 -0.24757458
000060 f0 94 12 be 94 97 08 3e 27 06 76 bb 4f 5a 6f 3b
       -0.14314628 0.13339072 -0.0037540288 0.0036522334
000070 24 72 cd bd 5d 20 04 be f4 63 55 3d 42 6b 84 bd
       -0.10031536 -0.1290297 0.052097276 -0.0646577
000080 78 73 a6 bd 1b 4c 0a bd 99 8e fc bd 23 6b 94 3b
       -0.08127493 -0.033763986 -0.12331886 0.0045293733
000090 47 f5 49 be b9 c8 25 be 99 61 4b 3e 09 45 81 bd
       -0.19722472 -0.16189851 0.1986145 -0.063119955
0000a0 ab e5 cf bc 38 a0 7c bd 83 d3 54 3e ca c4 3d bd
       -0.025378069 -0.061676234 0.2078381 -0.04633025
0000b0 5a d3 f1 bd 8a 0b 90 3d be 4e 61 3e 40 98 18 bc
       -0.1180789 0.07033451 0.22002694 -0.009313643
0000c0 9f f7 85 3c af 1f f3 bc 80 28 f6 bc 65 8e fe 3c
       0.016353427 -0.029678194 -0.030048609 0.031073758
0000d0 80 f0 e7 3d 25 e7 8b bd bd f1 8d 3e 9c 88 1d 3b
       0.113251686 -0.06831197 0.27723494 0.0024037724
0000e0 f0 7d 4f 3c fd 1f 29 3e 02 ba f9 bd 1b 63 9b be
       0.012664303 0.16516109 -0.12193681 -0.3034905
0000f0 ea 4a 5b bd b5 20 8d 3b c0 8a 1b be ec a7 8e bd
       -0.05353824 0.0043068775 -0.15189648 -0.06965622
000100 5f 71 b3 bd 5a 93 57 3c 08 21 f6 3c 76 a2 ac 3d
       -0.08761858 0.01315769 0.030045047 0.084294245
000110 63 b6 85 3c fa 11 16 3e 40 7e ac bd 35 88 d5 3c
       0.01632232 0.14655295 -0.08422518 0.026065925
000120 77 2a 21 be d1 25 a4 be ec 26 92 bd e1 84 82 bd
       -0.15738855 -0.32060102 -0.0713633 -0.06373001
000130 81 c3 ad bc 6b 66 3b 3e 7e 5b 41 3a 39 4f e5 bc
       -0.021211388 0.18300788 0.0007375999 -0.027991878
000140 34 fc ea bd 90 13 00 3e b6 54 9b bd bc f5 27 bc
       -0.11473885 0.12507463 -0.07584517 -0.010251459
000150 5e c8 84 be ef ee 94 3d d7 28 90 3d 42 f0 36 3e
       -0.25934118 0.072721355 0.070390396 0.17865089
000160 1b 6a 9e bd 5d 05 f8 3d 50 49 73 be 58 31 8b 3e
       -0.07735082 0.12110398 -0.23758435 0.27186084
000170 a1 b5 06 bc 2d 58 03 be 1b e8 25 3d 99 70 eb bd
       -0.008222015 -0.12826605 0.040504556 -0.11496086
000180 12 29 1d be dd b7 d0 3d 11 02 fa 3c 38 9c 29 be
       -0.15347698 0.10191319 0.030518563 -0.16563499
000190 44 0d da bd dd bc db bd 88 f4 96 3e d9 75 54 bc
       -0.106470615 -0.10729382 0.29483438 -0.01296755
0001a0 c0 cb de bd b0 ab 15 bd cc fe d1 3e 72 dd 69 be
       -0.10878706 -0.036540687 0.41014707 -0.22838381
0001b0 04 2a 63 b9 88 f8 42 3d 89 0e a2 3b f7 be c4 3d
       -0.00021664059 0.0476003 0.0049455804 0.09606736
0001c0 15 a8 03 be 89 1a c2 bc c7 bf 7d 3d a9 cd bf 3c
       -0.12857087 -0.023694294 0.06195047 0.023413496
0001d0 86 e1 0a be 26 39 9b be 6d 7a ee 3a 47 a6 f6 bd
       -0.13562593 -0.30317038 0.0018194445 -0.12043434
0001e0 e1 22 da bd 00 c2 4d 3e 42 eb 40 be 78 2d 12 be
       -0.10651184 0.20093536 -0.18839744 -0.14275157
0001f0 cf 63 a6 3d 52 c4 19 3e bb cc 66 3e 9b 65 65 3e
       0.08124506 0.15016297 0.22539036 0.2240204
000200 33 41 2b 3b ff ed 00 3e 8c fb 30 b9 b5 8f 6e 3d
       0.002613139 0.12590788 -0.00016878376 0.05824252
000210 04 89 b7 3b 42 31 7d bc e2 4e 79 be 9e 4c 05 3e
       0.0056010503 -0.0154536385 -0.24346498 0.13017508
000220 14 e5 17 bc 8a c6 84 3d b6 d8 cb bb ee b5 58 3c
       -0.009270925 0.06483181 -0.0062209023 0.013226969
000230 35 60 a7 3c a5 f6 ae 3c 5d 13 b8 bd 7b a0 25 3e
       0.020431617 0.021357844 -0.08988068 0.161745
000240 80 2c c6 3c 4b 01 a0 bc 0e 99 e9 3d bd 85 0e 3c
       0.024191141 -0.019531867 0.11406146 0.008698878
000250 7d c4 a4 bd 99 11 f1 3e 5e 68 29 3c 59 4b 42 bc
       -0.0804529 0.47083738 0.0103398245 -0.011858785
000260 04 ac ff bc 70 c0 a0 bc 96 68 32 bd d2 07 dd 3c
       -0.031209953 -0.019623011 -0.043556772 0.026981268
000270 51 09 36 3e 33 c5 53 bd 81 af 45 bc 81 e0 ff bb
       0.17776991 -0.051701736 -0.012065769 -0.0078087454
000280 02 53 69 bd 09 89 ce 3b 48 2b fc 3b 78 64 bc bd
       -0.056963928 0.006302957 0.007695589 -0.091988504
000290 ab c3 83 3e d3 ab 0a 3d d8 05 c1 3b 04 f6 a3 bc
       0.2573522 0.03385527 0.005890589 -0.02001477
0002a0 7a 73 84 3d 70 9b 55 bd 4c 34 36 bb 8f f4 89 3e
       0.06467338 -0.05215019 -0.0027802167 0.26944396
0002b0 9a a0 8e bd a1 8d 94 3d bd 62 2e 3c 87 12 da 3b
       -0.06964226 0.07253576 0.010643658 0.0066550407
0002c0 3f 9e 29 bd 4a 53 8c 3c 6f 6e 8a 3d 2e f9 da 3c
       -0.04141068 0.01712956 0.06759345 0.026730146
0002d0 bc 08 4d bc 95 65 cc bb f3 ea b1 3c 49 cd 8d be
       -0.0125142895 -0.0062376955 0.021718478 -0.27695683
0002e0 f6 bb 5d 3c 9e c3 12 3c e0 30 2b 3b ce 32 de bd
       0.013533583 0.008957772 0.002612166 -0.10849534
0002f0 c0 3c 8c bc d3 c9 a4 b9 d1 18 1a bc 14 4f 8c bc
       -0.017118812 -0.00031430888 -0.009405331 -0.017127551
000300 da d1 02 bd 07 6b 4c 3d fd 16 22 bc 20 49 28 bc
       -0.03193841 0.049906757 -0.009893176 -0.010271341
000310 95 61 a2 3d 52 36 92 bd 26 34 d6 3c 5e ac 04 3d
       0.079287685 -0.07139267 0.026147913 0.032390945
000320 e8 86 f5 3c 74 23 37 3b 79 22 07 bc aa 21 2c bc
       0.029971555 0.0027944716 -0.008247965 -0.010506073
000330 8a 69 01 3d f7 62 2b bd 78 2f ef 3a 22 2c 0b be
       0.03159479 -0.041842427 0.00182484 -0.13591054
000340 7f 8b 90 bc bf 9d f7 3b 9d c6 58 3e 7f 64 25 bc
       -0.017644642 0.0075566466 0.21169515 -0.010094761
000350 94 19 38 3e d2 e9 79 3c 42 2b 18 3c 8f 1d 98 3c
       0.17978507 0.015253501 0.009287657 0.018568782
000360 dc 92 cc bc 5d fe 0a 3c 52 06 07 be 18 92 28 b8
       -0.024972372 0.0084834965 -0.13186005 -4.019038e-05
000370 1f 39 b2 bc 9a 98 2b bb 63 b3 ab be 90 cd 68 be
       -0.021755753 -0.0026183487 -0.335353 -0.22734666
000380 e3 16 9c bd 88 1a 89 bc b3 8b c4 bb ab 40 70 3c
       -0.07621553 -0.016736284 -0.0059980988 0.014663856
000390 90 48 9a 3c 81 d1 2d 3e a2 1a 3f 3b 1c 09 50 3c
       0.018833429 0.1697445 0.0029160162 0.012697484
0003a0 e3 f8 14 bd a3 93 cb 3a a8 ab 24 bc e7 bd 48 bb
       -0.03637017 0.001553167 -0.010050692 -0.0030630769
0003b0 68 74 c7 3a 70 97 ee bc 88 71 b0 bd 47 ca 38 3d
       0.0015217187 -0.029124945 -0.08615404 0.04511478
0003c0 10 f1 4c 3e 34 38 4d bd 0b ab 1e 3c c2 72 21 3d
       0.20013833 -0.050102428 0.0096843345 0.039416082
0003d0 55 61 60 ba 07 02 64 3c 1e df af 3d 49 0e 46 bd
       -0.00085594255 0.013916499 0.08587478 -0.048353467
0003e0 a3 30 cb 3b 62 62 88 bb 88 a0 86 3d 8f cb 05 bb
       0.0062008663 -0.004162119 0.06573588 -0.002041552
0003f0 4f 34 0a be e2 e7 81 3a 70 e3 41 3b 77 7c c6 bb
       -0.13496517 0.0009911025 0.0029585026 -0.006057318

conv5.bias f4 [15]
000000 97 63 b0 bf ea 4d 80 3d fb 24 89 bd f1 0a d6 bc
       -1.3780392 0.06264861 -0.066965066 -0.026128264
000010 45 61 22 3d cd cc cc 3d cd cc cc 3d cd cc cc 3d
       0.039643545 0.1 0.1 0.1
000020 cd cc cc 3d cd cc cc 3d cd cc cc 3d cd cc cc 3d
       0.1 0.1 0.1 0.1
000030 cd cc cc 3d cd cc cc 3d cd cc cc 3d
       0.1 0.1 0.1
